10_DL_models/model/rnn/rnn_model_state_dict.pth (torch, 70346 bytes, 5 tensors)

rnn.weight_ih_l0 f4 [128, 1]
000000 81 25 60 bd 1b e0 f8 bc 3a 70 0c 3d 60 91 85 3d
       -0.054723267 -0.0303803 0.034286715 0.06521869
000010 bd 76 0e 3e dd 8a 64 bd a0 7a 12 bd 9d 57 08 be
       0.13912483 -0.055796493 -0.035761476 -0.13314672
000020 74 71 09 be e8 1f db 3c 05 79 c5 3d 19 1d a5 bd
       -0.13422185 0.026748613 0.09642223 -0.080621906
000030 b1 29 63 bd bd f4 cc bd 61 ad fa 3d 36 95 00 3e
       -0.055459682 -0.100076176 0.12240101 0.1255692
000040 c7 14 e9 3d 20 d0 8a bd c6 8c d4 3c 0d 2c 21 3d
       0.11380916 -0.06777978 0.025946032 0.03934865
000050 79 8f 6f bd 0c 2e 11 3e 72 f4 0f be a9 e0 e4 bd
       -0.058486436 0.14177722 -0.14058092 -0.11175663
000060 cd db 95 3d bb 17 40 3d 5e 0d fd 3d 25 51 af bd
       0.07317314 0.04689763 0.12356065 -0.08560399
000070 4c fc 22 bd d5 bb 1b 3e b0 63 c0 3d 72 54 a6 3d
       -0.03979139 0.15208371 0.09394014 0.081215754
000080 a5 69 02 be a8 59 9a bd c5 44 02 be 5f 86 0e 3e
       -0.12735613 -0.07536632 -0.12721546 0.13918446
000090 b9 c4 fb bd ec e0 06 be 17 7f b8 3d de f7 b4 bd
       -0.12293381 -0.13171738 0.090086155 -0.088363394
0000a0 36 76 44 be 4d e2 ab 3c 9c 04 31 3d 16 cf 32 be
       -0.19185719 0.020981932 0.043217286 -0.1746181
0000b0 3c 23 8e 3d 60 48 7a bd 0d 51 32 be 26 68 b5 3d
       0.06940314 -0.06110418 -0.17413731 0.08857755
0000c0 cf b0 5b 3d 89 3f 25 be a4 cd 9e 3d ca 49 84 3b
       0.053635415 -0.16137518 0.077540666 0.0040371167
0000d0 53 9e 12 ba a5 a9 ea bd ff 68 19 3d bb 94 10 3e
       -0.000559305 -0.114581384 0.037453648 0.14119236
0000e0 28 d2 f2 bd c2 dd a5 bc 0e 0d 73 3d fd dd 51 bd
       -0.118564904 -0.020247344 0.05933862 -0.051237095
0000f0 70 07 46 bd 27 4f b4 3d de 6a 06 3e b8 f3 51 3e
       -0.048346937 0.088041596 0.13126704 0.20503128
000100 07 1f a4 bd 15 25 e4 3d ed cc b3 3c 1a 38 4e 3e
       -0.080137305 0.11139885 0.021948302 0.20138589
000110 ee b5 16 bd ea 51 25 3e 6f 8c 13 bd 2e 9a fc 3c
       -0.036794595 0.16144529 -0.0360226 0.030835237
000120 cb 49 29 3e dc 3b 2a 3d f2 19 c4 3d 2f 44 25 3e
       0.16532056 0.041560993 0.09575261 0.16139291
000130 b6 0f 06 3e 6b b1 81 3c 17 42 b5 bd 93 98 95 bb
       0.13091931 0.01583167 -0.08850496 -0.0045653074
000140 eb ab eb 3d 9a 92 1d bd 21 5b cb bd 43 3e 23 3c
       0.115074 -0.03846989 -0.09929491 0.009963575
000150 93 26 68 3d ab 06 9e bd 47 72 f3 3d 35 3a 3c bd
       0.056677412 -0.077161156 0.11887031 -0.045953948
000160 e0 a4 c3 3d ed f7 c0 3d 1b eb 44 bd 38 30 01 3e
       0.09552932 0.09422288 -0.048075777 0.1261605
000170 08 90 dd bc bd 4c d1 bc 8d 36 1a 3e a0 3d 75 3d
       -0.027046219 -0.025549287 0.15059872 0.059873223
000180 6a 67 ac 3d 84 34 e1 bd c1 a7 a2 bd f2 5a 94 bb
       0.08418162 -0.10996345 -0.07942153 -0.004527443
000190 b3 a4 2e 3e 16 5a 0d 3e f1 74 44 3e 95 a1 87 3d
       0.17055015 0.13803896 0.19185235 0.06622616
0001a0 74 92 d0 3b f5 51 ad 3d 37 35 ef bd 52 95 df bd
       0.006365115 0.08462898 -0.11680072 -0.109171525
0001b0 97 44 79 3d 78 99 2c ba 83 ef 6a 3d e8 d2 05 3e
       0.060856428 -0.0006584148 0.057357322 0.13068736
0001c0 69 3a 0e 3e 19 b5 20 bd 32 4b 0a 3e 7f ae 12 3e
       0.13889469 -0.03923521 0.13505247 0.14324377
0001d0 ab 16 18 be ae bd 00 be 55 fd eb 3d c9 3f 0d 3c
       -0.14852397 -0.12572357 0.115229286 0.008621165
0001e0 da aa 0e 3e 1b 74 6c 3d 52 c1 2f 3e 90 8f d0 3d
       0.13932362 0.057727914 0.1716359 0.101836324
0001f0 ba 1a dd bc ea a4 dc bd 3c cb 13 be e6 ec d7 bd
       -0.026990283 -0.10773642 -0.14432997 -0.10543232

rnn.weight_hh_l0 f4 [128, 128]
000000 25 38 1e 3d 63 ba 65 bd f7 56 23 bd 85 6c 11 bd
       0.038627762 -0.056085955 -0.039877858 -0.035503883
000010 f1 a2 a9 bd c3 e7 d9 bd ed be 65 bd 89 f0 44 3d
       -0.08283032 -0.10639908 -0.056090284 0.048080955
000020 25 0d 1f bb 36 cb 98 3d 9a f1 45 3d e2 ac 3d bd
       -0.002426931 0.074606344 0.048326112 -0.046307452
000030 dd ad db bb f1 44 13 bd af b9 38 3d 56 a8 e5 3d
       -0.0067040757 -0.03595442 0.045098957 0.11213748
000040 2c 2f b1 3c be 9f 8d bd fa 60 11 bc 97 74 92 3d
       0.021628939 -0.06915234 -0.008873219 0.07151144
000050 41 08 4e 3c d3 83 30 bd 43 38 0c bd a0 f2 1b bd
       0.01257521 -0.043094467 -0.034233343 -0.038073182
000060 ed 1c 6f 3d a2 ab 3c 3d f3 1f 0e bd 46 77 01 3c
       0.058377195 0.04606212 -0.034698438 0.007901972
000070 38 c6 e8 bc 50 02 9c bd 72 96 56 3d d0 8f 08 bc
       -0.02841483 -0.076176286 0.05238957 -0.008335069
000080 8c 57 7d 3c 60 26 93 3d 31 24 db bc bc 26 a8 3d
       0.015462767 0.07185054 -0.026750656 0.08210513
000090 f4 11 d4 bc b0 a9 5d 3c 04 6d 59 3d 21 64 f2 3c
       -0.025887467 0.013529226 0.05308248 0.02958876
0000a0 0e 87 d2 bc da 4f a4 3c 89 5f 96 bd 11 85 58 3d
       -0.025699165 0.020057607 -0.07342441 0.052861277
0000b0 53 ef 97 3d ea 62 ac 3c de 15 cb 3b a9 52 30 3d
       0.07418694 0.02104326 0.006197675 0.04304758
0000c0 52 b6 aa 3c b3 76 29 bd f6 38 42 3d 5f 7a b0 3b
       0.02083889 -0.041372966 0.047417603 0.0053856815
0000d0 f7 f0 b7 3c 95 18 8e 3d 23 ec 4a bd cb 37 9b 3a
       0.022453768 0.069382824 -0.049541604 0.0011842189
0000e0 50 e3 a4 bd df 49 8a 3d 52 63 8f 3d 0c 49 c1 bc
       -0.08051169 0.06752371 0.07001366 -0.023594402
0000f0 ae f9 81 3c 4c d8 48 3b 4a 23 cf 3b d8 a4 80 3d
       0.015866127 0.00306465 0.0063213455 0.062814415
000100 2b 3e 86 bd b5 6d 9b 3b cf 9e ae 3d c1 bb ba bd
       -0.06554826 0.0047433027 0.08526384 -0.091178425
000110 15 93 d8 3b b2 79 a6 3d cc 6c 2e bd 4d a3 00 bd
       0.0066093304 0.0812868 -0.042584226 -0.031405736
000120 4f eb 2d 3d b7 54 8f 3d 8e 7d 1c 3d 46 c1 6d bd
       0.042460736 0.0699858 0.038205676 -0.058045648
000130 8f 7c b5 3c c6 ba 80 bc a4 86 f4 bc fb d5 3a 3d
       0.02215412 -0.01571406 -0.029849358 0.045614224
000140 0f 61 12 3d 5e 7d fd bc 6f 9a 8d bd 6f ac b7 3d
       0.035737094 -0.030943569 -0.069142215 0.08968436
000150 ce 0a 82 bd 02 52 dc bd 7c c2 91 3d 00 33 88 3d
       -0.06349717 -0.10757829 0.07117173 0.066503525
000160 64 97 b0 3d c5 a9 5a 3d 1a 54 b8 3c 6c 53 8e bd
       0.086226255 0.05338456 0.02250104 -0.06949505
000170 88 a0 3b bd 55 b0 ea 3d 86 ce 44 3d d6 f2 60 bd
       -0.04580739 0.11459414 0.04804852 -0.054919086
000180 8a ec 25 3d 9d e8 1b 3d 35 1d b6 3d 68 b1 61 bc
       0.040508784 0.038063634 0.088922895 -0.013775207
000190 9e 4d 99 bd c1 72 89 ba 35 1a f9 3b 5d 2a 19 3d
       -0.074855074 -0.001048647 0.007602001 0.037393916
0001a0 e5 ec 92 bd 6b 23 80 3d 5e 9e c2 bd 08 f0 74 3d
       -0.0717409 0.062567554 -0.095028624 0.059799224
0001b0 0e d3 b5 3d 53 c1 b6 bd fc d7 8e 3c 37 92 9f 3c
       0.08878146 -0.089235924 0.017436974 0.0194789
0001c0 2f df a8 3d f2 24 03 bd de b0 aa bc c7 f7 af 3c
       0.08245694 -0.032017656 -0.02083629 0.021480454
0001d0 28 e9 88 bd 88 08 ff 3c 8c d2 57 3d f4 64 47 bd
       -0.06685096 0.031131998 0.052691028 -0.04868026
0001e0 4c cd 38 3d 7c cb c3 bc 4f 33 40 bd 3b 73 34 3d
       0.04511766 -0.02390074 -0.04692393 0.044055205
0001f0 8a 54 32 bd 24 b8 a2 3c fe e6 0d bd 61 2f eb 3c
       -0.043537654 0.019863196 -0.03464412 0.028709115
000200 f9 97 47 3c 3a c5 d4 bd ed 89 3d 3b 6d 91 c0 3d
       0.012182229 -0.103891805 0.0028921322 0.09402738
000210 48 b4 27 3d d8 c9 1a 3d 07 39 c6 3c dd b2 e9 bb
       0.040943414 0.03779015 0.024197115 -0.007131918
000220 f9 d3 ca ba 10 47 bb 3d 87 fb 94 3c ee 23 a1 3d
       -0.001547455 0.091444135 0.018186344 0.07868181
000230 27 4d 43 bd 99 ae b1 bc 23 2c 4c 3d e3 b1 d4 3d
       -0.047681 -0.0216897 0.04984678 0.10385492
000240 2e 41 e8 bc 01 30 34 bd 88 3b 2b bd 70 ed f0 3b
       -0.028351393 -0.043991093 -0.04180482 0.0073525235
000250 36 97 83 3c c7 cf a9 bc 73 aa ba bd 06 fc 37 bd
       0.016063314 -0.020728959 -0.09114542 -0.044918083
000260 a5 a3 ed bc 12 58 96 3d b7 f9 84 3b 33 d8 42 bc
       -0.029008696 0.07341017 0.0040580886 -0.011892366
000270 24 e4 ee bc d4 b6 a1 3c 64 4d 8c 3c 1b f9 cb bc
       -0.02916152 0.0197405 0.017126746 -0.024899056
000280 de ee d6 3c 40 36 6e 3b a2 71 92 bc 29 0f 8b bd
       0.026236948 0.0036348253 -0.01787645 -0.06790001
000290 ea cd 63 3c b7 48 61 3d cc ad 75 3d 06 7a 79 3d
       0.013904074 0.055000987 0.0599802 0.060907386
0002a0 fc 7f fb bc f6 0a c0 bd 93 2b 0f bd de ca 96 3d
       -0.030700676 -0.09377091 -0.034953665 0.073629126
0002b0 f3 82 3f bd f9 0c 84 3d 01 fa 9b 3d 69 43 9b 3c
       -0.046755742 0.06447787 0.07616044 0.018953042
0002c0 ac 41 b9 3d e7 f5 4d bd c6 ad 97 3d f7 42 e4 3c
       0.09045729 -0.05028334 0.074061915 0.027863963
0002d0 bb e9 0b bd 15 0d 89 3d aa 9a 6a 3d e1 77 b7 3d
       -0.03415845 0.06691948 0.057276405 0.08958412
0002e0 da 87 47 3d 77 89 f6 3c fc 51 0f bc b8 b8 5f 3d
       0.048713543 0.030094845 -0.008747574 0.05461952
0002f0 6e 7a 3b bd a0 3d 4a 3c 20 ca 1e 3d 97 fc 7a 3d
       -0.045771055 0.012343794 0.03876698 0.061276045
000300 c5 ea 99 b9 5c 99 fe bc 87 5a 9a bd d0 49 bd bd
       -0.0002935735 -0.031078987 -0.07536798 -0.09242594
000310 b1 de 4b bd de 3e d1 bc 15 94 80 3d 45 c5 bd 3d
       -0.049772922 -0.025542673 0.062782444 0.09266142
000320 6b e7 43 bd 5f 19 5a bd ed 68 7b 3c 12 6e 0f bc
       -0.04782812 -0.053246852 0.0153448405 -0.00875427
000330 d7 a3 89 3c fe 03 4f 3c ba 5c 27 3c f7 fe bd 3d
       0.016801758 0.012635229 0.010214979 0.09277146
000340 8f 64 30 bd b3 26 b1 3c 87 d0 5e 3d f2 b1 42 bd
       -0.04306465 0.021624899 0.054398086 -0.047532983
000350 49 11 8a 3d 24 cf 81 bd ee 55 4b 3d d2 35 40 3d
       0.06741578 -0.06338337 0.049642496 0.046926327
000360 37 eb 2b bc 22 0f e0 3c 33 45 05 bd a6 ba d2 3a
       -0.010493091 0.027350966 -0.032536697 0.0016077354
000370 6c 73 6e bc d2 0d a6 bc d6 03 6a 3d 49 db 93 bd
       -0.014553886 -0.020270262 0.057132564 -0.0721956
000380 25 23 d5 bc ff 54 02 bd 91 20 c6 bc bd 42 5f bc
       -0.026017735 -0.03181934 -0.02418545 -0.0136267515
000390 47 85 ae bd b1 e3 cf 3d 99 af 96 3d b1 8e bb 3c
       -0.085215144 0.101508506 0.07357711 0.022895189
0003a0 86 2e 06 bd 76 8a 98 3c 2f 29 8b bd aa c3 80 3d
       -0.032759212 0.01862071 -0.067949645 0.0628732
0003b0 76 0e 4c 3d 52 c6 6d 3b 14 6b b1 3a 0d 5d 80 bd
       0.04981848 0.0036281538 0.001353594 -0.06267748
0003c0 0b 8d b1 3c 69 96 bd 3a e8 b1 36 3b ad 4f 9d bc
       0.0216737 0.0014464381 0.0027877036 -0.019203031
0003d0 ed bf ab 3d b0 20 fb 3b 70 27 0b bd 9c 94 11 bd
       0.08386216 0.0076638088 -0.033973157 -0.035542116
0003e0 89 2a c9 3d f5 62 ca bc d1 31 99 3d d4 0c 13 bc
       0.09822566 -0.02470539 0.07480205 -0.008975226
0003f0 26 e6 f9 ba 4c 51 b7 bd a1 3c 6a bd 2e fb 84 3c
       -0.0019065782 -0.08951053 -0.057186726 0.016233053

rnn.bias_ih_l0 f4 [128]
000000 db 07 9f ba ce 7d 3d bc 97 b8 8a bc 26 d8 a3 3b
       -0.0012133078 -0.011565639 -0.016933722 0.005000132
000010 1c b2 79 3d 33 18 23 3d 17 97 80 bd a5 42 49 bd
       0.060960874 0.039818 -0.06278818 -0.049135823
000020 ec c4 5b bd 7a a7 5c 3d f4 6a b0 3c 35 e0 05 bd
       -0.053654596 0.053870656 0.021535374 -0.032684524
000030 44 25 22 3d d5 d0 51 bd 65 75 77 bb e7 7d 37 bd
       0.03958632 -0.05122455 -0.0037759182 -0.044797804
000040 c3 48 83 3d 79 82 3a 3d 10 57 41 3d 76 79 44 3d
       0.064103626 0.045534585 0.04720217 0.047967397
000050 c4 2a d6 ba 0e 5f 95 3d 67 c7 3a bc 75 14 3d 3d
       -0.001633965 0.07293521 -0.01140008 0.046162087
000060 52 c1 36 bd 82 62 78 bd d8 99 17 3c 88 ee 53 bd
       -0.04461796 -0.06064082 0.009252988 -0.051741153
000070 29 56 5a 3d 2c e6 9d bd fe b1 0a bd 00 3c 0a 3d
       0.053304825 -0.077099174 -0.033861153 0.033748627
000080 02 4d 8b bd 21 67 87 bd 7b b1 0c bc 75 07 48 3d
       -0.068017974 -0.06611467 -0.0085872365 0.048835237
000090 1a 3c 96 3b 94 4c 88 3d 82 9f 8f 3d f6 ca c4 3c
       0.0045848014 0.06655231 0.070128456 0.02402256
0000a0 75 ca 71 bd d5 f3 c5 3c 27 1e 87 bd 7b ed 56 3d
       -0.05903097 0.02416412 -0.06597548 0.052472573
0000b0 c7 a0 7e 3d b9 3e 1d bd 02 49 02 bc e4 f3 18 3a
       0.062165048 -0.038389895 -0.007951977 0.00058346824
0000c0 10 da 84 3d 40 f3 84 3c c4 e2 fc bc c2 1b 9b bb
       0.064869046 0.016229272 -0.030869849 -0.0047335336
0000d0 bd 1e c8 bc 79 89 b1 3d 6d 55 a7 3d 63 d3 55 bd
       -0.02442872 0.08668799 0.081705905 -0.052203547
0000e0 d1 a7 f8 bc 84 cd 3c 3d d8 2a 5b 3d 1f cd 99 bc
       -0.030353459 0.046094432 0.053507656 -0.018774567
0000f0 55 07 1c 3d cf 9b 06 bd ca b5 5c bd e5 83 25 3d
       0.03809293 -0.032863434 -0.053884305 0.040408988
000100 87 07 8e 3d 85 03 9e 3d b2 c7 28 3b 4e db 9a 3d
       0.069350295 0.07715515 0.0025753793 0.0756136
000110 88 69 42 bc 66 74 89 bb 44 d5 99 3d 59 16 8f 3d
       -0.011865981 -0.004194784 0.0751138 0.06986684
000120 a1 f0 9e bd fb 11 89 bd 06 00 10 bd b4 7f 4f 3d
       -0.0776074 -0.066928826 -0.035156272 0.050658897
000130 6f 66 a9 bd 38 b2 06 3d 3f 77 01 bd 6a 13 92 3d
       -0.08271491 0.032884806 -0.031607863 0.07132609
000140 a8 e6 a8 3d 68 5a 33 bc cf e5 a6 bd 0b 7a b2 bd
       0.08247119 -0.0109468475 -0.08149301 -0.08714684
000150 32 28 98 bd 9b dd 9c 3c c9 e1 99 3d 81 45 9e bd
       -0.07429542 0.019148638 0.07513768 -0.077281006
000160 f9 ef bd 3c 59 45 66 3d 8e 3f 8f 3d 53 37 c9 3c
       0.023185717 0.05621848 0.06994544 0.024562513
000170 1d 0b 77 bd 6b 9f 6a bd 2d 00 08 3d aa 35 58 3d
       -0.060313333 -0.05728094 0.033203293 0.052785553
000180 02 f4 24 bd 8c a8 f9 3b e7 d9 33 bb b3 6f 39 3d
       -0.040271766 0.0076189693 -0.0027443112 0.04527254
000190 27 ad 99 3d 90 51 48 3c 92 19 a5 3c ff 05 93 39
       0.07503729 0.012226477 0.020153794 0.00028042492
0001a0 a6 98 96 bd b3 3a a5 3d 3b 39 20 3d 7b c5 99 3c
       -0.07353334 0.080678366 0.03911708 0.018770924
0001b0 f9 7c 85 3c 4f f5 b7 bd 8a 5b 48 3d 0d 02 ec bb
       0.016294943 -0.08982336 0.048915423 -0.007202393
0001c0 c9 2a b6 3c e1 c0 05 ba 27 59 50 3b 80 95 f5 3c
       0.022237198 -0.00051022886 0.003179142 0.029978514
0001d0 ef d2 8c bd 8f f3 56 3b 9b 5d 24 bd e6 b4 71 3d
       -0.0687617 0.003279898 -0.04012833 0.05901041
0001e0 c4 fb 97 3d 84 10 aa bd 5d 45 6b bd f6 92 83 3a
       0.07421067 -0.08303931 -0.057439197 0.0010038305
0001f0 03 87 97 3d b1 69 39 bd 82 d4 84 bd 0c 7b 47 bd
       0.07398798 -0.04526681 -0.06485845 -0.04870133

rnn.bias_hh_l0 f4 [128]
000000 77 95 4d 3d fd 7c a0 3b 02 e2 95 bd d7 aa cc 3c
       0.05019137 0.0048977123 -0.07318498 0.024983807
000010 fd 10 2d ba 76 3e da 3c 9f 9c 86 3c e2 8b 07 bd
       -0.0006601958 0.026641112 0.016432105 -0.033092387
000020 fc 49 c0 bc c7 fd a4 3d 12 05 4c 3d a7 74 60 bc
       -0.023472778 0.08056217 0.049809523 -0.013699687
000030 17 99 40 bc 91 a2 ba bb a1 1e 87 bd 64 a7 48 bd
       -0.011755249 -0.005695649 -0.06597639 -0.04898776
000040 1d 38 35 ba 54 59 64 bd 55 24 97 3d 79 6e 18 3b
       -0.00069129636 -0.055749252 0.07379977 0.0023259206
000050 50 6c f1 3b c6 9c 92 bd b5 df cf 3c d5 8c 13 bd
       0.007367648 -0.071588084 0.025375227 -0.03602298
000060 dd 88 54 bd c4 05 29 bd fd 45 61 bd 04 60 9f bd
       -0.051888335 -0.041265264 -0.054998387 -0.077819854
000070 40 79 8f 3d ac d0 aa 3d 14 a6 56 3d 82 ed 08 bd
       0.070055485 0.08340582 0.05240448 -0.03342963
000080 18 b8 c4 bc 2f b7 fd 3c 58 9c 38 3d 00 aa 16 3c
       -0.024013564 0.030971138 0.045070976 0.009195805
000090 e2 68 a2 bc cc 15 59 bd e9 7a 06 3d 97 b0 2f bc
       -0.019825403 -0.052999303 0.03283206 -0.010723255
0000a0 9a f7 8f 3d 43 25 61 bc 96 4a b0 3d 75 8d f0 3c
       0.07029648 -0.013741794 0.08607976 0.029364327
0000b0 ad d8 56 3c 36 56 8c bd 43 2c de bc 44 f7 2c bb
       0.013113183 -0.06852381 -0.027120715 -0.00263925
0000c0 44 0b 07 bd e3 fd 44 bc 5d 81 97 3b 2e b5 80 3d
       -0.032969728 -0.012023422 0.0046235756 0.06284557
0000d0 bc 3b c6 ba 7d 00 9f bc 05 85 98 bd a0 0d cc bc
       -0.0015124003 -0.019409413 -0.074472465 -0.02490884
0000e0 45 bb 81 bd 0b 59 75 3c 32 80 dd bb 92 7a 8c bd
       -0.06334547 0.014974843 -0.006759667 -0.06859316
0000f0 0f 0b 90 3c 2e fb 65 bd 73 2f fb bc 2f 07 93 bd
       0.017583398 -0.056147747 -0.030662274 -0.071791045
000100 8f 96 31 bd d3 cd 50 3d 13 e0 ae bc 0e 85 c0 3b
       -0.043356474 0.05097754 -0.021347081 0.0058752364
000110 5a cd 78 3a c5 df 02 3d 5a a7 0a bd 9d 02 37 3d
       0.0009491049 0.031951685 -0.033851005 0.044680227
000120 19 4f 33 3c 49 c2 5a bd 06 95 86 3c b5 41 19 3d
       0.010944151 -0.05340794 0.016428482 0.03741618
000130 4e 47 8a 3d 53 7c 86 bd 8f 33 74 3d fa a9 21 bc
       0.067518815 -0.06566682 0.059619483 -0.009867186
000140 19 b7 2f 3d ec e7 4f 3d 1a f9 3c 3d e1 38 39 3d
       0.042899225 0.050758287 0.046136 0.04522026
000150 e7 2e ab 3d ef 04 95 3c 26 91 a8 bd c7 b4 88 3d
       0.08358555 0.01819083 -0.0823081 0.066751055
000160 3c d5 56 3d 66 b6 64 3d 44 8a 32 3d 36 03 16 3d
       0.05244945 0.05583801 0.04358889 0.036624156
000170 eb 1c 9b bc 97 49 df 3c 45 7f 96 bd f7 e2 95 bd
       -0.018934688 0.02725677 -0.073484935 -0.07318681
000180 c4 2c 37 3d a4 2a 99 3a 1c 04 7e 3d df 8d 87 3d
       0.044720426 0.0011685682 0.062015638 0.06618857
000190 f9 0a 7a bd 0c f4 52 3d e3 44 90 bd 97 44 76 3c
       -0.06104562 0.051502272 -0.07044389 0.0150310015
0001a0 d6 e0 d1 bc 80 a5 91 3d 6f a3 26 bd ad 00 ed 3c
       -0.025619905 0.07111645 -0.040683206 0.028930986
0001b0 b6 40 53 3d f8 ca 99 3d 84 be 87 3d 2b 33 e6 bb
       0.051575385 0.07509416 0.06628135 -0.0070251427
0001c0 99 d2 96 bd eb 6c 07 3d 24 a6 2f 3c 78 f2 26 bd
       -0.07364387 0.033062857 0.010720763 -0.04075858
0001d0 5a 5d ba 3d d0 1d a8 bc 0b 0b 20 3d b8 75 4d 3d
       0.09099837 -0.020522028 0.03907303 0.050161093
0001e0 5a 82 90 bd 13 76 88 3d 87 d8 9d 3c 58 6c d4 3b
       -0.070561126 0.06663146 0.019268287 0.006482642
0001f0 ab 3b 57 bd f8 f5 a7 bd 6d de 9f 3c c6 de a3 3d
       -0.05254714 -0.08201212 0.01951524 0.08001475

fc.weight f4 [1, 128]
000000 8d 3a b0 3c cf e5 d0 3c 40 05 61 3d 6e 2d f5 3c
       0.021512294 0.025500206 0.054936647 0.02992889
000010 70 7a 97 3d f8 f9 8c 3d 2f d1 c2 bc 80 c0 c7 bd
       0.073964 0.06883615 -0.023781387 -0.09753513
000020 7c cc ef bd ab 70 a6 3d 8f 85 ff 3c b1 8f 4d bd
       -0.11708924 0.081269585 0.031191615 -0.050185863
000030 dc 2d 42 3d 99 b5 a9 bd f7 ab 48 3d 90 17 e8 3c
       0.047407016 -0.0828659 0.048992123 0.028331548
000040 cb b2 2e 3d 20 c5 c5 bd 6a 82 7f 3d e0 70 fe bc
       0.04265098 -0.09656739 0.062380232 -0.031059682
000050 34 e2 ab bd cb 97 aa 3d d4 ff 12 be f8 8a 42 be
       -0.08392754 0.083297335 -0.14355403 -0.18998325
000060 f4 37 f5 bc 91 14 6a ba 3e 85 77 3d fd d3 80 bd
       -0.029933907 -0.0008929456 0.060429804 -0.062904336
000070 0e ab 87 3d 18 55 ed 3d 93 dc db 3c 4f 5b 87 3d
       0.06624423 0.11588496 0.026838576 0.066092126
000080 1b 1d 2a bd ef 71 77 bd 0f f0 10 bd 4f e4 cb 3d
       -0.041531663 -0.06041139 -0.035385188 0.09955656
000090 74 86 b7 bc 21 fe 00 be 38 33 cc 3c df 60 88 bd
       -0.02240298 -0.12596942 0.024926767 -0.06659102
0000a0 dc d4 0a be fb b3 e7 3c da 0f f2 3c e7 60 17 be
       -0.13557762 0.028284064 0.029548574 -0.14783059
0000b0 1f 9b 38 3d 6f 02 3b 3d 75 c9 01 be 04 84 c8 3d
       0.04506981 0.045656618 -0.12674506 0.09790805
0000c0 65 1e 2c 3d c3 47 04 be 5b d9 93 3b c0 49 80 3d
       0.042021174 -0.12918 0.004511995 0.06264067
0000d0 d8 89 57 bd ef cf 38 bd e8 b7 bf 3d ee 7f a5 3d
       -0.052621692 -0.045120176 0.09361249 0.08081041
0000e0 34 8a 55 bc 50 e7 b3 bc c7 2d e3 3d de 0a 82 bd
       -0.0130334385 -0.021960884 0.11092716 -0.06349729
0000f0 ef 37 d1 3c f6 3d 3a 3d c9 9b a3 3d 6b ee d1 3d
       0.025539367 0.045469247 0.07988698 0.10250553
000100 2a e3 46 bd f1 c5 68 3d 62 ca 9c 3d ea 32 bc 3d
       -0.048556484 0.056829397 0.07655789 0.091893986
000110 6f 59 aa bc e4 0d db 3d e5 1e ac bd e7 cf bc 3d
       -0.020794598 0.10696009 -0.0840433 0.09219342
000120 0c d7 b5 3d 89 3e a9 3d 4f 2a 00 3d 6c 95 b3 3d
       0.088789076 0.08263881 0.03129035 0.08768734
000130 54 a3 fd 3d f5 45 3e 3c 23 fc b4 bd 55 f4 9b bc
       0.12384668 0.011613359 -0.08837154 -0.019037405
000140 08 a5 b0 3d 94 67 45 3d 47 90 e5 bd b3 00 93 bd
       0.08625227 0.048194483 -0.11209159 -0.07177868
000150 45 89 23 3d 1a 54 8d bd 9c d1 fd 3d d9 05 c6 bd
       0.039925832 -0.06900807 0.123934954 -0.09669084
000160 cd db 72 3d f8 f9 49 3d 7b 85 cd bc 2e c8 a0 3d
       0.05929165 0.049310654 -0.025088063 0.07850681
000170 25 d7 17 bb 54 46 ab bd 04 f5 ef 3d a1 77 dd 3b
       -0.0023169008 -0.083630234 0.11716655 0.0067586456
000180 7a 38 4a 3d 78 9b cc bd 92 76 a7 bd 9e db 8f 3d
       0.049370266 -0.09990591 -0.08176912 0.070243105
000190 03 a9 34 3e 40 81 c5 3d cd 14 cc 3d 92 79 74 3d
       0.17642598 0.09643793 0.09964905 0.05968625
0001a0 d7 77 c9 3c e8 80 83 3d ce c1 c1 bc 01 a5 19 bc
       0.024593277 0.06421071 -0.023651984 -0.009377719
0001b0 20 40 ce 3d a4 4b 4c bd ad 07 9a 3d 81 99 b0 3d
       0.100708246 -0.049876824 0.07520995 0.086230285
0001c0 84 8f 0a 3e 9a e5 f8 3c 4e 1b d3 3d c8 43 22 3e
       0.1353131 0.03038292 0.10307942 0.15846169
0001d0 34 a3 b4 bd 5f b5 d1 bd f3 3f 61 3d 64 c8 1e 3d
       -0.08820191 -0.10239672 0.054992627 0.038765326
0001e0 b7 a0 d4 3d cb 8b 0c bc 93 8b 35 3e a7 8e 09 3e
       0.103822164 -0.008578251 0.17729025 0.13433324
0001f0 f7 f3 ba bc 33 70 c4 bd de b4 c9 bd 4a 0a c5 bd
       -0.02282141 -0.09591713 -0.09848951 -0.09621103
