10_DL_models/model/lstm/lstm_model_state_dict.pth (torch, 423378 bytes, 11 tensors)

lstm1.weight_ih_l0 f4 [512, 1]
0	0x3d272b9e	0.04081308
1	0xbd1ff489	-0.039051566
2	0x3e10fe82	0.14159587
3	0x3d43b8fc	0.047783837
4	0xbd93b28e	-0.07211791
5	0x3cb47749	0.022029536
6	0xbc3060c7	-0.010765261
7	0x3d2336bb	0.039847117
8	0xbc717d7e	-0.014739392
9	0xbc8beb93	-0.017080104
10	0x3d12e4e6	0.035862826
11	0x3dd1bdfe	0.10241316
12	0x3beec0d2	0.0072861696
13	0x3b39df8c	0.0028362004
14	0x3dddf955	0.10838572
15	0xbd2c5c3d	-0.042080153
16	0xbbe72e2d	-0.007055065
17	0xbded6e7d	-0.115933396
18	0x3d40aed2	0.04704172
19	0xbca164a6	-0.019701313
20	0xbc931abf	-0.01795709
21	0x3db52acc	0.088460535
22	0x3dc88ea4	0.097928315
23	0xbc9328c1	-0.017963769
24	0x3d526240	0.05136323
25	0x3d32d149	0.04365662
26	0x3d8ede51	0.06975997
27	0x3cf3a446	0.029741418
28	0x3de483e4	0.11157969
29	0x3e038098	0.12842023
30	0xbc894291	-0.016755374
31	0xbd30d99c	-0.04317628
32	0x3e0c3bdb	0.13694708
33	0x3d3527e5	0.0442275
34	0x3d5e9385	0.054339904
35	0xbc4295a5	-0.011876498
36	0xbdfa7089	-0.12228496
37	0xbcd9972d	-0.026561344
38	0x3d530a25	0.051523346
39	0x3d678c26	0.05653014
40	0x3d5fc6ca	0.05463294
41	0xbc2ddbcd	-0.010611487
42	0x3dcf9505	0.10135845
43	0x3d50a2a8	0.05093637
44	0x3dfbf102	0.12301828
45	0xbe2b8f2a	-0.16753832
46	0x3dbbd5a8	0.09171611
47	0x3e0bada2	0.13640454
48	0xbda7e49f	-0.08197903
49	0x3df638cd	0.12022553
50	0x3d82e09d	0.06390498
51	0x3df91dc8	0.121638834
52	0xbb367b98	-0.0027844664
53	0x3dc8f547	0.09812408
54	0x3d1015ff	0.035177227
55	0xbd6bc997	-0.057565298
56	0x3df68595	0.120371975
57	0x3d81f27c	0.06345078
58	0xbcbac5ca	-0.022799391
59	0x3dec808d	0.115479566
60	0xbde51d01	-0.11187173
61	0x3d3bdeb2	0.045866676
62	0x3bfcf4a1	0.0077195917
63	0x3da83358	0.08212918
64	0x3b3815ac	0.002808909
65	0xbd9fd02d	-0.07803378
66	0x3e1188dd	0.14212365
67	0xbd3e819a	-0.046510316
68	0x3d2b9784	0.041892543
69	0x3d8f8fbd	0.07009838
70	0xbd7b98a4	-0.061424866
71	0x3bdfe7d1	0.0068330546
72	0x3d85796b	0.06517299
73	0xbccd47ae	-0.025058594
74	0x3c353ae2	0.011061402
75	0x3d528c79	0.051403496
76	0x3db498ed	0.08818231
77	0x3c25d17e	0.010120748
78	0xbd35f6ca	-0.04442481
79	0x3dd516c8	0.10404736
80	0x3c88e807	0.016712202
81	0xbdd5e64b	-0.104443155
82	0xb8c421fd	-9.352339e-05
83	0x3cee6f96	0.029105943
84	0xbcac1c84	-0.021009691
85	0x3cca20f9	0.024673926
86	0xbd9355a0	-0.07194066
87	0xbd38a7e8	-0.045082003
88	0x3d973aba	0.07384248
89	0x3ce212ee	0.027596917
90	0xbd22e05a	-0.03976474
91	0x3e0d41b2	0.13794592
92	0x3c5c6b64	0.013453338
93	0x3d4100b2	0.047119804
94	0xbcf3249f	-0.029680548
95	0xbd04b038	-0.032394618
96	0x3dccbf7f	0.099974625
97	0x3df92505	0.12165264
98	0x3de10fe8	0.10989362
99	0xbcd4eb2f	-0.02599105
100	0x3df9b360	0.12192416
101	0x3e040b36	0.12894902
102	0x3cf42e1b	0.029807141
103	0x3d57356b	0.052541178
104	0x3c693cfd	0.014235732
105	0x3dc2e954	0.0951716
106	0xbddd4dda	-0.10805865
107	0x3ae322ed	0.0017329134
108	0x3b6ac365	0.003582203
109	0xbd3385d1	-0.04382879
110	0x3e49fc62	0.19725183
111	0x3be580ed	0.0070038945
112	0x3d441dca	0.04787997
113	0xbd2ad186	-0.041703723
114	0x3c9772d9	0.01848738
115	0x3e084cb0	0.13310504
116	0xbd5787b4	-0.05261965
117	0x3d106d42	0.035260446
118	0x3da901cb	0.08252295
119	0xbdda0055	-0.106445946
120	0x3c866737	0.016406639
121	0xbd96e15a	-0.07367201
122	0xbdada4e6	-0.084787175
123	0x3e46836f	0.19386075
124	0x3d87c8f7	0.06630128
125	0x3c61fe57	0.0137935495
126	0xbc420cbf	-0.011843859
127	0xbd2062b9	-0.03915665
128	0xbc3864ce	-0.011254502
129	0xbda8e5b0	-0.082469344
130	0x3d056f57	0.032576885
131	0x3cda712a	0.026665289
132	0xbb054ab4	-0.0020338716
133	0xbd2fc8ed	-0.042916227
134	0x3d130b5a	0.035899498
135	0x3c05cbaa	0.008166233
136	0x3d88cdc1	0.066798694
137	0x3cc18db1	0.023627134
138	0xbdfe86e8	-0.12428075
139	0x3d314bc1	0.043285135
140	0xbe3b647c	-0.1830005
141	0xbc43e17c	-0.011955615
142	0x3db84db6	0.08999197
143	0xbd933b34	-0.071890265
144	0x3cbf6964	0.023365684
145	0xbd88d109	-0.06680495
146	0x3dba93f4	0.09110251
147	0x3d3f6c67	0.04673424
148	0xbdf140e4	-0.11779955
149	0xbc2fa0fe	-0.010719536
150	0xbd333570	-0.043752134
151	0x3db4b05f	0.088227026
152	0x3d9e81f9	0.07739634
153	0x3cb8af66	0.022544574
154	0x3d991e9f	0.07476544
155	0xbdbdb7de	-0.092635855
156	0xbc3cd214	-0.011524696
157	0x3de12dc3	0.109950565
158	0xbd69a917	-0.057046022
159	0xbd249aa3	-0.040186536
160	0x3db3e4f7	0.08783906
161	0x3d9e049d	0.07715724
162	0x3d3773a7	0.04478803
163	0xbe4061b2	-0.18787268
164	0xbd0f8a3b	-0.035043936
165	0x3d191b37	0.03737947
166	0x3d48aa75	0.048990685
167	0x3e0e01cd	0.13867874
168	0xbbeee53b	-0.00729051
169	0x3dc04ace	0.09389268
170	0x3dbcde72	0.092221156
171	0x3d5d4145	0.054017324
172	0x3da6063a	0.081066564
173	0xbd809f96	-0.062804386
174	0x3d96f21c	0.073703974
175	0x3d979cd4	0.074029595
176	0xbd82886c	-0.06373677
177	0x3d6526b1	0.055945102
178	0xbdf5c4bd	-0.120004155
179	0xbdb53d0f	-0.08849537
180	0xbe554e61	-0.2083068
181	0xbd2189c3	-0.03943802
182	0x3d83db92	0.06438364
183	0x3db8b2a5	0.09018449
184	0xbc98a846	-0.018634927
185	0x3c51514b	0.012775729
186	0xbca067a5	-0.019580672
187	0x3db4eff0	0.08834827
188	0xbccce942	-0.02501357
189	0xbd42bc98	-0.04754314
190	0x3d7e69f4	0.062112764
191	0x3d3ffd9b	0.046872716
192	0xbda8d40d	-0.082435705
193	0x3c8c7bc5	0.017148862
194	0xbd8f38e9	-0.069932766
195	0xbcf877bb	-0.03033053
196	0xbcff1b5a	-0.031140972
197	0xbcd619da	-0.026135374
198	0xbdc39ce3	-0.09551408
199	0xbd942531	-0.07233656
200	0xbd04d97a	-0.032433964
201	0xbd740446	-0.059574388
202	0x3db44f4a	0.08804186
203	0x3d9ae46d	0.075631
204	0xbce0e42d	-0.027452553
205	0x3d9b85c9	0.07593877
206	0x3ce70af0	0.028203458
207	0xbcd60444	-0.02612508
208	0x3dc0b019	0.09408588
209	0xbe02d0bb	-0.12774937
210	0xbcec5e4c	-0.028853558
211	0x3bcee842	0.0063143084
212	0xbe08c971	-0.13358094
213	0xbe67e3cd	-0.22645493
214	0x3c9a5bcb	0.018842598
215	0xbd693610	-0.056936324
216	0x3d42dbfb	0.04757307
217	0xbd70d7ca	-0.058799542
218	0xbd3c6689	-0.045996223
219	0x3daf71c9	0.08566625
220	0x3db07747	0.086165
221	0x3dc2a1a3	0.09503486
222	0x3df31733	0.11869659
223	0x3daadb75	0.08342639
224	0x3dbafba2	0.091300264
225	0x3d2079f6	0.03917881
226	0x3ca85316	0.020547431
227	0x3a11738b	0.0005548528
228	0x3d8a9ef7	0.067686014
229	0x3dd79ad2	0.105275765
230	0x3bdf5752	0.0068158293
231	0x3c866abb	0.016408315
232	0xbc46c73c	-0.012132462
233	0x3dcf045d	0.10108254
234	0xbdc48275	-0.09595195
235	0x3c8ad5e0	0.016947687
236	0xbd71efd4	-0.05906661
237	0xbda09fa8	-0.07842952
238	0xbd8169c8	-0.06319004
239	0x3e00255e	0.12514254
240	0x3e01d7e5	0.12680013
241	0xbe230c8a	-0.15922752
242	0xbcc6e2aa	-0.024278004
243	0xbceb42f7	-0.028718455
244	0xbca406c2	-0.020022754
245	0xbaec5b31	-0.0018032548
246	0xbcfe4d4b	-0.031042716
247	0xbe0f84af	-0.14015459
248	0x3d57f058	0.052719444
249	0xbe2f64ba	-0.17128268
250	0x3c1d37b8	0.009595804
251	0xbe5cd07c	-0.21563905
252	0xbc11f22a	-0.008907834
253	0x3b40abef	0.0029399355
254	0x3de4675a	0.11152525
255	0x3df2ee08	0.11861807

lstm1.weight_hh_l0 f4 [512, 128]
0	0xbcd96b43	-0.026540404
1	0xbe0137d3	-0.12618951
2	0x3c9e85bc	0.019350879
3	0xbbcf008b	-0.0063172034
4	0x3bb3855a	0.005478543
5	0x3d838593	0.06421962
6	0x3cfda7b2	0.030963752
7	0x3d2cdd85	0.042203445
8	0x3dc9a339	0.098455854
9	0xbd5213f3	-0.051288556
10	0x3be730b5	0.007055367
11	0x3d5c7d55	0.053830463
12	0xbd82ab7d	-0.06380365
13	0xbd258bfe	-0.04041671
14	0xbd97fae6	-0.07420902
15	0x3c5e87f7	0.013582221
16	0x3c81252c	0.015764795
17	0x3be3fa97	0.006957363
18	0x3c5eb60c	0.013593208
19	0x3b1a0297	0.0023500079
20	0xbd874495	-0.06604878
21	0xbd118f76	-0.035537206
22	0x3d663c7c	0.056210026
23	0x3d42b313	0.04753406
24	0xbdc42601	-0.09577561
25	0xbc0e1599	-0.0086721415
26	0xbd942241	-0.07233096
27	0xbdf9934d	-0.121862985
28	0x3cc6302c	0.024192892
29	0x3d81805e	0.06323312
30	0xbdb706ab	-0.08936819
31	0x3d792e53	0.060835194
32	0x3d92c8f5	0.07167236
33	0x3d0e787c	0.03478287
34	0xbcaac864	-0.020847507
35	0xbc821f06	-0.015883934
36	0xbc9c7dec	-0.019103013
37	0x3d6c7802	0.057731636
38	0xbc838aad	-0.016057337
39	0x3cf82b30	0.03029403
40	0xbda21887	-0.079148345
41	0x3d70ad6e	0.058759145
42	0xbc5af07e	-0.013363002
43	0xbb376d52	-0.0027988744
44	0x3d08ff20	0.03344643
45	0x3cc1f2e6	0.023675393
46	0x3d10ac2d	0.03532045
47	0x3cf323fa	0.02968024
48	0x3d56de83	0.052458297
49	0x3d1699a9	0.036767635
50	0xbd919514	-0.071085125
51	0x3d87fb7d	0.066397645
52	0xbc2aae76	-0.010417571
53	0xbd2ea905	-0.04264166
54	0xbd1cdd36	-0.0382969
55	0x3d794be3	0.060863387
56	0xbdc2e84c	-0.09516963
57	0x3c468857	0.012117467
58	0x3cdcf2ed	0.026971305
59	0xbd92828a	-0.071538046
60	0xbd80f857	-0.06297367
61	0x3d7103b0	0.058841407
62	0xbd7cce72	-0.06172032
63	0xbbe96617	-0.0071227658
64	0x3d3f65a9	0.04672781
65	0x3d820dab	0.06350263
66	0xbd887083	-0.06662085
67	0x3d737142	0.059434183
68	0xbc00b39b	-0.007855321
69	0xbd2639b3	-0.04058237
70	0x3cb4c707	0.02206756
71	0xbcde75d4	-0.027155794
72	0xbd39817f	-0.045289513
73	0xbb1c139e	-0.0023815404
74	0x3ceb0897	0.02869062
75	0xbd5d6c9e	-0.054058664
76	0x3c78e1bf	0.015190541
77	0xbd843c4d	-0.06456814
78	0x3da48eb4	0.08035031
79	0xbd087bae	-0.033321075
80	0x3d6c60f3	0.057709645
81	0x3d87c0d5	0.06628577
82	0xbd968c69	-0.07351
83	0x3d9a0dd0	0.07522166
84	0xbd9ebf5e	-0.07751344
85	0xbd74b21e	-0.05974018
86	0xbd21c797	-0.039496984
87	0x3d25da6f	0.040491518
88	0x3d22db8e	0.039760165
89	0xbcd3a11e	-0.025833663
90	0x3d63fbc2	0.055660017
91	0xbd73be4b	-0.05950765
92	0x3da03574	0.078226954
93	0xbca6c15a	-0.02035587
94	0x3d5f5802	0.05452729
95	0x38546542	5.0639042e-05
96	0xbd31cd14	-0.04340847
97	0xbda0976f	-0.07841384
98	0xbd76702b	-0.060165565
99	0xbc826ef5	-0.015922049
100	0x3dd4ffb1	0.10400332
101	0x3bba46b6	0.005684699
102	0x3dbc02b8	0.09180206
103	0x3c4452b9	0.011982613
104	0xbc74ec6c	-0.0149489455
105	0x3d18892e	0.0372402
106	0x3c8b6b76	0.017019015
107	0xbb66eb67	-0.0035235526
108	0x3da523e2	0.08063485
109	0x3c2af304	0.010433916
110	0x3d858c9a	0.06520958
111	0xbdca5c10	-0.09880841
112	0x3d95547d	0.072915055
113	0xbda47f43	-0.08032086
114	0xbda5094f	-0.08058416
115	0x3d8184e2	0.063241735
116	0x3e0c30ec	0.13690537
117	0x3d7d235f	0.06180131
118	0x3cc5c56c	0.02414199
119	0x3d872576	0.06598942
120	0xbdc88f70	-0.097929835
121	0xbe082c3d	-0.13298126
122	0x3d31d4e9	0.043415938
123	0x3d23b07a	0.039963223
124	0xbc4153f7	-0.011799804
125	0xbda41313	-0.080114506
126	0xbd81923d	-0.06326721
127	0xbda5290e	-0.08064471
128	0xbd96cbd5	-0.073630966
129	0x3d4d73df	0.05015933
130	0x3e32184c	0.17392081
131	0x3ce2ec3f	0.027700542
132	0x3c8cf939	0.017208682
133	0xbc7f884b	-0.01559646
134	0xbdccc19d	-0.09997866
135	0xbbf2b004	-0.0074062366
136	0xbcfa551d	-0.030558163
137	0xbd3d7250	-0.046251595
138	0xbd30a6c9	-0.04312781
139	0x3d88db3a	0.06682439
140	0xbd419127	-0.04725757
141	0xbd3ab56d	-0.045583177
142	0xbd9155d7	-0.07096451
143	0xbdcffd61	-0.1015575
144	0xbcda73c2	-0.026666526
145	0x3c9a3086	0.018821966
146	0x3e1f7b7c	0.1557445
147	0x3e02b594	0.12764579
148	0xbdbcb897	-0.09214895
149	0x3daee8c7	0.085404925
150	0xbd6bff06	-0.057616256
151	0x3ba3b6f8	0.004996177
152	0xbc436245	-0.011925285
153	0xbd544a64	-0.051828757
154	0xbc1c1ec0	-0.009528816
155	0x3cf842e1	0.030305328
156	0x3ce4093b	0.027836433
157	0x3c0378c4	0.008024398
158	0xbd565067	-0.05232277
159	0x3c94f0c5	0.018181214
160	0xbcc67a56	-0.024228256
161	0x3cdc8699	0.02691965
162	0xbc1b1f62	-0.009467931
163	0xbbc9e7f4	-0.006161684
164	0xbd0a2538	-0.0337269
165	0xbd5517d8	-0.052024692
166	0xbd59063b	-0.052984457
167	0xbd322dd0	-0.04350072
168	0xbcc1d017	-0.023658795
169	0x3d688982	0.056771763
170	0x3df2dada	0.11858149
171	0xbd7edb93	-0.06222112
172	0x3dc50a1f	0.09621071
173	0x3c84ebe5	0.016225765
174	0x3d986eef	0.07443034
175	0xbd3b9842	-0.0457995
176	0xbd47577d	-0.04866742
177	0xbdd1598c	-0.10222158
178	0xbdb49bae	-0.08818756
179	0xbd449805	-0.04799654
180	0xbda7099e	-0.08156131
181	0xbdceda41	-0.101002224
182	0x3ba922fe	0.005161642
183	0xbc933167	-0.017967893
184	0xbdb745b3	-0.08948841
185	0x3d9b4fad	0.07583556
186	0x3c65bcd0	0.014022067
187	0xbd7c8d0c	-0.06165795
188	0xbda283b3	-0.07935276
189	0xbd2793af	-0.040912326
190	0xbd3a4207	-0.045473125
191	0xbde5d627	-0.11222487
192	0x3dbb10e9	0.09134085
193	0x3e40214d	0.18762703
194	0xbe1c7116	-0.15277514
195	0x3c5422f8	0.01294779
196	0xbd368192	-0.04455716
197	0xbd0091fe	-0.03138923
198	0x3bc5e852	0.0060396576
199	0xbc70fa51	-0.014708118
200	0x3de7b1fe	0.11313246
201	0x3c6f79dc	0.014616456
202	0xbc738eb1	-0.014865563
203	0x3ad5000a	0.0016250622
204	0x3d4d23b2	0.05008287
205	0xbd5514e0	-0.05202186
206	0x3bdb9565	0.006701159
207	0xbce9f182	-0.028557543
208	0xbd51c677	-0.05121466
209	0x3d9d60e9	0.076845
210	0xbd54cc9e	-0.05195295
211	0x3d88d816	0.0668184
212	0xbb2fb78e	-0.0026812288
213	0x3d97d099	0.07412834
214	0x3e12117a	0.1426448
215	0x3d3b0305	0.045657177
216	0x3c60c28e	0.01371826
217	0x3d55d476	0.05220457
218	0x3cd330dc	0.025780134
219	0x3c2e0fc1	0.010623873
220	0x3cdefa12	0.027218852
221	0x3d1855d9	0.037191246
222	0xbd9e353f	-0.07725
223	0xbdac2a35	-0.08406488
224	0xbbac8dbf	-0.005265921
225	0xbdf296e2	-0.11845185
226	0x3e0d352d	0.13789816
227	0x3d2e4714	0.042548254
228	0x3d4922db	0.049105506
229	0x3d01a202	0.031648643
230	0x3e2559a1	0.16147472
231	0x3db5914d	0.088656045
232	0xbbb21953	-0.005435148
233	0x3da2d9a8	0.07951671
234	0xbad12a17	-0.0015957978
235	0xbd837e6c	-0.064205974
236	0xbd93103e	-0.07180832
237	0x3d27141b	0.04079066
238	0xbd91f512	-0.071268216
239	0xbd1d1672	-0.038351484
240	0x3cf180a9	0.029480295
241	0xbdb78751	-0.089613564
242	0xbe18d21d	-0.14923902
243	0xbc7b878a	-0.015352139
244	0xbd8a4bb0	-0.067527175
245	0xbd1cf78c	-0.038322017
246	0xbd379334	-0.04481812
247	0x3d8b3a2a	0.06798203
248	0x3d051be1	0.03249729
249	0xbd9b4f45	-0.07583479
250	0xbd512ca4	-0.051067963
251	0x3dde0350	0.108404756
252	0x3d921833	0.07133522
253	0x3e12a81f	0.14321946
254	0x3ca592a0	0.020211518
255	0xbdba4c1f	-0.0909655

lstm1.bias_ih_l0 f4 [512]
0	0xbd0cd2d8	-0.034380764
1	0x3d0723de	0.03299319
2	0x3dda9e3b	0.10674711
3	0xbd9ceac6	-0.07661967
4	0x3daae00b	0.08343514
5	0xbc8e42b1	-0.017365785
6	0x3cd9ca73	0.026585793
7	0xbc388420	-0.01126197
8	0x3d496591	0.049169127
9	0x3d5d321c	0.054002866
10	0x3bae55e2	0.0053202966
11	0xbc547758	-0.012967907
12	0x3e011c5a	0.12608472
13	0xbd5bce89	-0.053663764
14	0x3cce5519	0.025187062
15	0xbd84ca18	-0.06483859
16	0x3c5becb8	0.013423137
17	0x3d1459d3	0.036218476
18	0x3b82bea1	0.00399001
19	0xbdb7ad6b	-0.08968624
20	0x3d9e97fa	0.07743831
21	0xbcbe7e85	-0.023253689
22	0x3d79430d	0.06085496
23	0x3db73ecc	0.089475244
24	0xbc41d560	-0.011830658
25	0xbc4292de	-0.011875836
26	0x3cd5aed9	0.02608435
27	0xbb9a4395	-0.0047077634
28	0xbc5e3e0a	-0.013564596
29	0x3dba673f	0.09101724
30	0xbcb23f63	-0.02175874
31	0xbdbf1717	-0.09330576
32	0x3dc99a47	0.09843879
33	0x3d977dca	0.07397039
34	0xbd642e7c	-0.055708393
35	0x3cdc7a40	0.026913762
36	0xbbc5538b	-0.006021922
37	0xbcc49b4e	-0.023999836
38	0x3cfb47e8	0.030673936
39	0xbcca316a	-0.024681766
40	0x3e17789e	0.14792106
41	0x3daa454d	0.08313999
42	0x3dbaeef1	0.09127606
43	0xbce93cc6	-0.028471362
44	0x3cf0587d	0.02933907
45	0xbd1b8e4c	-0.0379775
46	0x3dc08e95	0.09402195
47	0x3d01633b	0.031588774
48	0xbd99da39	-0.07512326
49	0x3c81aafe	0.015828606
50	0x3dacc59a	0.08436127
51	0x3e2ebf76	0.17065224
52	0x3d864ca5	0.065575875
53	0xbcef1465	-0.02918453
54	0x3c7d05ae	0.015443249
55	0xbdb55976	-0.08854954
56	0x3cb0539f	0.021524249
57	0x3de3759e	0.11106418
58	0xbc112e43	-0.008861127
59	0xbd0cc7f6	-0.034370385
60	0xbd320aa4	-0.04346718
61	0x3ccb4eab	0.024817785
62	0x3cff22a1	0.031144442
63	0xbd34852c	-0.044072315
64	0xbd182fac	-0.03715484
65	0xbc179cad	-0.009253663
66	0x3e4d4d53	0.20049028
67	0x3e14eb49	0.14542879
68	0x3d2dc6b2	0.04242582
69	0xbafe6cf4	-0.0019411133
70	0x3d66ed63	0.056378733
71	0x3e5e92b4	0.2173565
72	0xbadcb889	-0.0016839664
73	0x3d4c4903	0.049874317
74	0x3b98c6a1	0.0046623503
75	0xbc4951cd	-0.012287569
76	0x3dd2fa17	0.10301607
77	0x3c859a6c	0.016308986
78	0x3d890325	0.06690053
79	0x3dec6ec7	0.115445666
80	0x3d610971	0.054940645
81	0x3db5f816	0.08885209
82	0x3dc61740	0.09672403
83	0xbd765a14	-0.0601445
84	0x3e260d9c	0.16216129
85	0x3e9c8b31	0.30574945
86	0x3de6612a	0.11249001
87	0xbd98e832	-0.07466163
88	0x3d24d856	0.040245377
89	0xbc9af04b	-0.018913409
90	0xbd7c1ea9	-0.061552677
91	0x3d2c8cee	0.04212659
92	0xbbd73758	-0.006567877
93	0x3d7c7861	0.06163824
94	0x3897bc92	7.235365e-05
95	0xbcd622b8	-0.026139602
96	0xbd25c659	-0.040472362
97	0x3ca27969	0.019833283
98	0xbc88012b	-0.01660212
99	0xbd9a7172	-0.07541169
100	0x3d369f6d	0.044585634
101	0xbb72937d	-0.003701418
102	0x3d9c42a4	0.07629898
103	0x3d3152b5	0.043291766
104	0x3d9534fd	0.07285497
105	0x3dddf539	0.10837788
106	0xbc590837	-0.0132465875
107	0x3c0d2e53	0.008617002
108	0x3cd0b85e	0.025478538
109	0xbd96c0f2	-0.0736102
110	0x3eb0831e	0.34475034
111	0xbcb0295d	-0.021504099
112	0x3d4d5c1c	0.05013667
113	0x3c92851d	0.017885739
114	0xbd97f597	-0.074198894
115	0x3dd0b012	0.10189833
116	0xbc354fb1	-0.011066363
117	0x3cd3965d	0.025828535
118	0xbd93d58c	-0.07218465
119	0xbc8afdb7	-0.016966684
120	0x3c6d78fe	0.014494179
121	0x3df345e8	0.11878568
122	0xbc8f2635	-0.017474273
123	0x3e8e27b3	0.27764663
124	0xbc8eaafb	-0.017415514
125	0x3e1baf9d	0.1520371
126	0x3d81a840	0.06330919
127	0x3d66ba11	0.05632979
128	0x3c5607f3	0.013063419
129	0xbd945a2c	-0.072437614
130	0xbdbf4202	-0.09338762
131	0x3d5d1dff	0.053983685
132	0xbd7028e3	-0.058632743
133	0x3d7880ba	0.06066964
134	0x3db0bd29	0.086298294
135	0x3d06df9d	0.032928098
136	0x3c73b3c1	0.0148744
137	0x3d0004d8	0.03125462
138	0xbd871a49	-0.0659681
139	0xbd2fabd7	-0.04288849
140	0x3cdb63dc	0.026781015
141	0xbd869096	-0.06570546
142	0xbdcac10d	-0.09900103
143	0x3cb976b1	0.022639604
144	0xbdadfaa5	-0.08495072
145	0x3c1a8c8e	0.009432925
146	0xbc6f2ebb	-0.014598544
147	0xbd525826	-0.051353596
148	0x3d0565b0	0.03256768
149	0x3d90de87	0.07073694
150	0xbd89ba33	-0.06724968
151	0x3d28d93d	0.0412228
152	0xbdb0b3ff	-0.086280815
153	0xbde55ea4	-0.11199692
154	0xbdc2cbe4	-0.09511545
155	0xbdf320bd	-0.11871479
156	0x3cb98436	0.02264605
157	0xbcdba794	-0.026813306
158	0x3b792f7c	0.0038022688
159	0xbadf499d	-0.0017035488
160	0x3d737159	0.05943427
161	0xba09776b	-0.000524393
162	0xbcd424f6	-0.02589653
163	0xbd38a4e5	-0.04507913
164	0xbd83ebcd	-0.0644146
165	0xbb22a3b1	-0.0024816806
166	0xbd711862	-0.058861144
167	0xbd3c288c	-0.045937106
168	0x3daf0c22	0.08547236
169	0xbce71709	-0.028209226
170	0x3afd965f	0.0019347182
171	0xbcdeabd2	-0.02718154
172	0xbb5d8f85	-0.0033807468
173	0xbc9ab21f	-0.018883763
174	0x3d8f66fa	0.07002063
175	0x3d89fcc0	0.06737661
176	0xbd66a768	-0.056311995
177	0xbceda757	-0.029010458
178	0xbe16e661	-0.1473632
179	0xbe0771ee	-0.13227054
180	0xbd94feb0	-0.0727514
181	0xbd1b3e69	-0.037901316
182	0xbd8c6a2d	-0.06856189
183	0x3d6cd4f3	0.05782027
184	0xbcc830c4	-0.024437316
185	0x3d9524e1	0.07282425
186	0xbd918ced	-0.071069576
187	0x3c0b60eb	0.008506994
188	0xbd376c11	-0.044780795
189	0xbdac6892	-0.08418383
190	0x3d665c28	0.05624023
191	0x3d5ceef4	0.05393882
192	0xbdbe9bc4	-0.09307054
193	0x3ca49222	0.020089213
194	0xbdc485f5	-0.09595863
195	0x3b28e8c5	0.0025773507
196	0xbcdb9164	-0.026802726
197	0xbb614439	-0.003437294
198	0xbbde775b	-0.0067891306
199	0xbdabad80	-0.08382702
200	0xbd8173f5	-0.06320945
201	0xbd51857f	-0.051152702
202	0x3c9c7a25	0.019101212
203	0xbd8174f6	-0.06321137
204	0xbd9b2d3d	-0.07576988
205	0xbd00da1f	-0.031458016
206	0x3d4cd6a7	0.050009396
207	0xbd38454b	-0.044987958
208	0x3aabd129	0.0013108599
209	0xbd2c63b4	-0.04208727
210	0xbce75857	-0.028240366
211	0xbc598f1f	-0.013278752
212	0xbd2b2972	-0.041787572
213	0xbdac698f	-0.08418571
214	0x3d782729	0.06058422
215	0xbd4ca2cc	-0.049959943
216	0xbda8fd2e	-0.08251415
217	0x3d3d7c79	0.046261285
218	0xbdf71c41	-0.12065936
219	0xbca2a487	-0.019853843
220	0xbd63c353	-0.055606198
221	0xbd7c2433	-0.06155796
222	0xbda11bd2	-0.078666344
223	0x3c3a6646	0.011376923
224	0x3d991cbf	0.07476186
225	0x3d2096d1	0.03920633
226	0x3cb1fe4c	0.021727704
227	0xbdc7dfd3	-0.09759488
228	0x3c9e1c31	0.019300552
229	0x3d81e040	0.063416004
230	0xbd4fe9a8	-0.05075994
231	0xbdc6c17a	-0.097048715
232	0x3d80a54b	0.06281527
233	0xbd169177	-0.03675982
234	0xbdb38b68	-0.08766824
235	0x3ccbbe7c	0.024871103
236	0xbd6cdd53	-0.05782826
237	0xbd782123	-0.060578477
238	0xbdc6da5a	-0.09709616
239	0x3d4b27fe	0.049598686
240	0xbda80e2f	-0.0820583
241	0xbc48c1e1	-0.012253256
242	0x3daaac1d	0.08333609
243	0x3bba790a	0.0056906985
244	0xbdd5a7d7	-0.104324035
245	0x3b497c3d	0.0030744218
246	0xbdc8ada2	-0.09798743
247	0x3d472e53	0.048628163
248	0x3d82a429	0.06378967
249	0x3ccdb6ee	0.025111642
250	0xbddbe3bd	-0.10736797
251	0xbe27020e	-0.16309378
252	0xbd0b71c9	-0.03404406
253	0x3dc85565	0.09781913
254	0xbc4b51a2	-0.0124095995
255	0xbd93e5dc	-0.072215766

lstm1.bias_hh_l0 f4 [512]
0	0xbb1927d7	-0.0023369694
1	0x3b344125	0.002750465
2	0x3dbb8d89	0.09157855
3	0xbd12785c	-0.035759315
4	0x3db50d1d	0.08840392
5	0xbd66cea9	-0.05634943
6	0x3c2a36cf	0.010389044
7	0xbd0e333b	-0.034716826
8	0x3d967faf	0.073485725
9	0x3c676bf6	0.014124861
10	0x3b87711e	0.0041333577
11	0xbb083316	-0.0020782403
12	0x3e1dc99c	0.15408939
13	0x3d0a90fa	0.033829667
14	0x3da3054a	0.07959993
15	0x3c523500	0.012830019
16	0xbd08160b	-0.033224147
17	0x3ddb3b62	0.10704686
18	0xbd987301	-0.0744381
19	0xbd00dd81	-0.031461243
20	0xbc9b652e	-0.018969145
21	0x3cc4cd9d	0.024023825
22	0xbc9e4414	-0.019319572
23	0xbd86a774	-0.06574908
24	0x3d3247f9	0.04352567
25	0x3d47a910	0.048745215
26	0x3c0e1fab	0.008674542
27	0x3cf4285f	0.029804407
28	0x3ce62238	0.028092489
29	0x3cd8ee9a	0.026480962
30	0xbd94130f	-0.07230198
31	0xbc9807b8	-0.018558368
32	0x3dbbec5e	0.09175943
33	0xbb934332	-0.0044940943
34	0xbd366328	-0.044528157
35	0x3d34ad40	0.044110537
36	0x3d92d71b	0.07169934
37	0xbda42ee3	-0.080167554
38	0xbdb212fa	-0.08695026
39	0xbd15974a	-0.036521234
40	0x3d3764e8	0.044773966
41	0x3d79ee27	0.061018135
42	0x3c8f4d36	0.017492872
43	0x3d5fbbcf	0.054622468
44	0xbd0354c3	-0.032063257
45	0xbcb487b9	-0.022037374
46	0xbcda6780	-0.02666068
47	0x3d37aad4	0.04484065
48	0xbda3c597	-0.07996672
49	0x3d9cb7f6	0.07652275
50	0xbcede551	-0.02904001
51	0x3e7f1b80	0.24912834
52	0x3dc313a4	0.095252305
53	0x3bc5a755	0.0060319104
54	0xbd83b01f	-0.06430077
55	0xbd90869c	-0.07056925
56	0x3ca0a32f	0.019609062
57	0x3e154614	0.14577514
58	0x3b88c986	0.004174414
59	0x3de5d1af	0.112216346
60	0xbd2f8e66	-0.04286041
61	0xbd400d46	-0.04688766
62	0xbd81251a	-0.06305905
63	0xbd8be485	-0.06830696
64	0xbdad2e0a	-0.08456047
65	0x3e0f991d	0.14023252
66	0x3e444fc5	0.19171055
67	0x3cc4b683	0.02401281
68	0x3c429db9	0.011878424
69	0x3dcfdaa4	0.10149124
70	0xbd6bb317	-0.05754384
71	0x3e41cf98	0.18926847
72	0xbc84e194	-0.016220845
73	0x3d89ac42	0.06722309
74	0x3c8f5061	0.017494382
75	0x3b31bc28	0.0027120207
76	0x3d50e429	0.05099884
77	0x3cafb74e	0.021449711
78	0x3beace07	0.0071656737
79	0x3de40019	0.11132831
80	0x3c83b827	0.016079022
81	0x3ab26999	0.0013611793
82	0x3d9cf85c	0.07664558
83	0x3d9d1057	0.07669132
84	0x3d927136	0.071504995
85	0x3e9e33dc	0.3089894
86	0x3c89a5e0	0.016802728
87	0xbc0b9487	-0.008519298
88	0x3d64e28e	0.055880122
89	0x3c4ef187	0.012630827
90	0xbdb2f6de	-0.087384924
91	0xbbfd70a2	-0.007734374
92	0x3cf4c0a8	0.029877022
93	0xbab22381	-0.0013590903
94	0x3da9cd50	0.082911134
95	0xbc93da76	-0.018048506
96	0xbd87e141	-0.06634761
97	0x3d3cbb21	0.046076898
98	0x3da882ad	0.082280494
99	0x3d810305	0.06299404
100	0xbd389919	-0.04506788
101	0x3c1c2cd7	0.009532175
102	0xbd9af9ee	-0.075672016
103	0xbd9fa19b	-0.07794496
104	0x3d5ee4e5	0.05441751
105	0x3dcf2e13	0.1011621
106	0x3bf945b3	0.0076071857
107	0x3d8ac364	0.06775549
108	0x3d5755af	0.05257195
109	0xbd62e5f4	-0.05539508
110	0x3eab16ac	0.33415735
111	0x3d5435d7	0.05180916
112	0x3d853dcd	0.06505928
113	0x3d4809c1	0.048837427
114	0x3c1fff95	0.009765525
115	0x3de56d5e	0.11202501
116	0x3c246deb	0.010035972
117	0x3df2d355	0.11856715
118	0x3c1ce091	0.009575025
119	0xbce7fe15	-0.028319398
120	0xbd7b138f	-0.06129795
121	0xbcaeb405	-0.021326074
122	0x3da76228	0.08173019
123	0x3e816457	0.25271866
124	0x3c964ed7	0.01834814
125	0x3e157e62	0.14598992
126	0x3d071667	0.03298035
127	0x3d8a8df0	0.06765354
128	0x3d893701	0.06699944
129	0xbdbfcb5f	-0.09364962
130	0xbd5b510e	-0.053544097
131	0x3d7569f9	0.059915517
132	0x3d32df1d	0.04366981
133	0xbcac9d3f	-0.021071075
134	0x3da3d395	0.079993404
135	0xbd8d523f	-0.06900453
136	0xbc8f21d4	-0.017472185
137	0xbc8f6aeb	-0.017507037
138	0x3ce16bc1	0.027517201
139	0x3ce98079	0.028503643
140	0xbdcdcf95	-0.10049359
141	0x3bf7f40c	0.0075669345
142	0xbd8cd72f	-0.068769805
143	0xbd8bb219	-0.06821079
144	0xbd35e820	-0.044410825
145	0x3ccc44fd	0.02493524
146	0x3ba987db	0.005173666
147	0xbc9c7a47	-0.019101275
148	0xbd13dea2	-0.03610099
149	0xbd028360	-0.03186357
150	0xbd8823f5	-0.06647483
151	0x3c65fe1f	0.014037638
152	0xbc4e9377	-0.012608401
153	0xbe1540bc	-0.14575475
154	0xbd76591b	-0.06014357
155	0x3d5925cb	0.053014558
156	0xbc65926d	-0.014011961
157	0x3d50e0dd	0.050995696
158	0xbd85b0dd	-0.065278746
159	0xbbcc4962	-0.006234334
160	0xbd1d475d	-0.038398135
161	0x3c308133	0.010772991
162	0x3d8bf52c	0.06833872
163	0x3d0afb1b	0.03393088
164	0xbd880707	-0.06641965
165	0x3cba2c0a	0.022726078
166	0x3d6f8ade	0.058482043
167	0xbbc61233	-0.00604465
168	0x393e3099	0.00018137916
169	0x3d696a32	0.05698604
170	0x3cb2b752	0.02181593
171	0xbdc61864	-0.09672621
172	0xbc07f5ec	-0.008298378
173	0xba70fb63	-0.0009192733
174	0xbd5c3d0c	-0.053769156
175	0x3cb27439	0.021783935
176	0xbda34e0b	-0.0797387
177	0x3d8f00ad	0.06982551
178	0xbe2df2cd	-0.16987152
179	0xbe1e91a0	-0.15485239
180	0xbdda4162	-0.10657002
181	0xbdbe98c9	-0.09306485
182	0xbd8f124f	-0.06985914
183	0xbaad719d	-0.0013232712
184	0xbd8dff02	-0.069334045
185	0x3d87c123	0.06628635
186	0x3d364322	0.044497617
187	0x3d9b10e5	0.07571582
188	0xbd6f27da	-0.058387615
189	0xbe2f24c9	-0.17103876
190	0xbd65b103	-0.056077015
191	0xb95b8397	-0.00020934489
192	0xbd74ad57	-0.059735622
193	0x3c4120ea	0.0117876325
194	0xbe285692	-0.16439274
195	0xbdfd4f23	-0.1236861
196	0x3ce3e0a0	0.02781707
197	0xbd78c202	-0.060731895
198	0xbd8599b6	-0.06523459
199	0xbe317ff9	-0.17333974
200	0x3d93bdf4	0.07213965
201	0xbd76fc48	-0.060299188
202	0xbd33ee4f	-0.04392844
203	0x3d06ea4a	0.03293828
204	0x3d396618	0.04526338
205	0xbd362985	-0.04447319
206	0x3d966dd3	0.07345166
207	0xbd53227e	-0.051546566
208	0x3c1432c2	0.009045305
209	0xbd6e7256	-0.058214508
210	0xbd96ff4e	-0.07372914
211	0x3d882edf	0.06649565
212	0xbd6844d8	-0.05670628
213	0xbe43c0a6	-0.19116458
214	0xbd91e841	-0.07124377
215	0x3d155a7a	0.03646324
216	0x3d2ff215	0.042955477
217	0xbd4fbf2d	-0.05071943
218	0xbcb09bfe	-0.021558758
219	0x3d16b09c	0.03678952
220	0xbca17c53	-0.019712603
221	0xbc1a7155	-0.0094264345
222	0x3c06d15e	0.008228628
223	0xbd89da08	-0.06731039
224	0xbbfb2fb8	-0.0076656006
225	0xbbdc2af5	-0.006718988
226	0x3d938696	0.072034046
227	0xbd710826	-0.05884566
228	0xbce2613d	-0.027634257
229	0xbd90bc2e	-0.070671424
230	0xbc8471e3	-0.016167587
231	0xbcbf14c4	-0.023325332
232	0xbca1e72d	-0.019763554
233	0x3d2ad545	0.041707296
234	0x3ca42371	0.020036431
235	0xbc2dec87	-0.010615475
236	0xbd4c7079	-0.04991195
237	0x3c69914e	0.014255835
238	0xbdd64c2f	-0.104637496
239	0xbd35edcc	-0.044416234
240	0x3d0204e8	0.03174296
241	0xbd94e477	-0.07270139
242	0xbd951b19	-0.07280559
243	0x3c0ce1e1	0.008598776
244	0xbd9b4a3d	-0.07582519
245	0xbbe12ab0	-0.006871544
246	0xbd539903	-0.051659595
247	0x3db2812c	0.08716044
248	0xbdcc63df	-0.099799864
249	0xbd424778	-0.04743144
250	0xbe228c95	-0.1587394
251	0x3b82965d	0.00398521
252	0x3da8c404	0.08240512
253	0xbd3e865e	-0.04651486
254	0xbdace02c	-0.08441195
255	0x3cb0ec3f	0.021597026

lstm2.weight_ih_l0 f4 [200, 128]
0	0xbd4a4c34	-0.04938908
1	0x3d0861b8	0.033296317
2	0xbe034e13	-0.12822752
3	0x3b1d6cf8	0.002402125
4	0x3d5f9c7d	0.0545926
5	0x3d0ea32e	0.03482359
6	0x3e052c00	0.13005066
7	0x3d0971e7	0.03355589
8	0x3d6b7135	0.05748101
9	0x3cbf3fa9	0.023345785
10	0x3dcedd58	0.10100812
11	0xbd88337f	-0.06650447
12	0xbccc9e77	-0.024977906
13	0x3d5463da	0.05185304
14	0xbdeda6e4	-0.116040975
15	0x3dd00ba4	0.1015847
16	0xbdf92ac8	-0.12166363
17	0x3de11beb	0.10991653
18	0x3db90324	0.09033802
19	0x3d475d35	0.048672874
20	0x3d5f7ba7	0.054561283
21	0x3defdb35	0.11711732
22	0xbe0fda97	-0.14048229
23	0xbd9d0d11	-0.07668508
24	0xbc9a137b	-0.018808117
25	0x3dd41fe5	0.10357646
26	0x3dd2d7aa	0.10295041
27	0xbdad70e4	-0.08468798
28	0xbc16b4e1	-0.009198398
29	0x3d0da40e	0.034580283
30	0xbcce00f2	-0.025146935
31	0x3d41973d	0.047263373
32	0xbc536dec	-0.012904625
33	0xbd228e8c	-0.039686725
34	0x3da1a7d6	0.0789334
35	0x3d88a158	0.06671399
36	0xbd41e6e6	-0.047339343
37	0xbd7df2b1	-0.061999027
38	0x3db6a756	0.089186355
39	0xbdfdc415	-0.12390915
40	0xbe1ccd92	-0.15312794
41	0x3db66b59	0.08907194
42	0xbe12856b	-0.14308707
43	0xbddc8b8e	-0.107688054
44	0x3d2c5034	0.042068675
45	0x3dc20ffa	0.094757035
46	0x3dcf2167	0.10113793
47	0xbdbe9e0a	-0.09307487
48	0xbcf98009	-0.03045656
49	0x3d5c9bb7	0.05385944
50	0xbde6f7c7	-0.112777285
51	0xbda9d52c	-0.082926124
52	0x3d843a63	0.06456449
53	0x3b7bb35e	0.0038406472
54	0xbdf0b9c8	-0.11754185
55	0x3e005045	0.1253062
56	0xbd69931e	-0.057025068
57	0x3e042836	0.12905964
58	0x3ca7adbf	0.02046859
59	0xbc27d46b	-0.0102435155
60	0x3e015637	0.12630545
61	0x3dd5b9e5	0.10435847
62	0xbd34f2b8	-0.044176787
63	0x3d762aef	0.06009954
64	0xbde147e0	-0.11000037
65	0x3d91905e	0.07107614
66	0x3dc951eb	0.09830078
67	0x3a4bf81c	0.00077808066
68	0x3ba39af5	0.0049928376
69	0x3d93db34	0.07219544
70	0xbcf6b007	-0.030113233
71	0xbd7c863c	-0.061651453
72	0x3d83416b	0.06408962
73	0x3e1beb35	0.15226443
74	0x3b1c811c	0.0023880666
75	0xbdc517ec	-0.09623703
76	0xbd755950	-0.05989963
77	0x3dbab0b7	0.09115737
78	0x3d4df1d2	0.050279446
79	0xb99a8db9	-0.0002947876
80	0x3de496b7	0.11161559
81	0x3d329afa	0.04360483
82	0xbd8734bd	-0.06601856
83	0xbddf2130	-0.10895002
84	0xbc59cd73	-0.013293612
85	0x3b105e1b	0.0022028747
86	0x3ca02834	0.01955042
87	0x3dfcb940	0.12340021
88	0xbe158bc7	-0.14604102
89	0xbde7e155	-0.113222755
90	0x3e14b4ae	0.14522049
91	0x3d347a6e	0.04406207
92	0xbbb44337	-0.0055011767
93	0xbe0fbe0e	-0.14037344
94	0x3d820c73	0.06350031
95	0xbd13be1e	-0.03606998
96	0x3d46b929	0.048516426
97	0x3df0b706	0.11753659
98	0xbe19ec8f	-0.15031646
99	0xbdb79618	-0.08964175
100	0xbda11937	-0.078661375
101	0x3d99faea	0.07518561
102	0xbddd2871	-0.10798729
103	0x3c991470	0.018686503
104	0x3dc9e0a0	0.09857297
105	0xbdbb7a87	-0.091542296
106	0x3d7f30e5	0.06230249
107	0xbdbe9b26	-0.09306936
108	0xbde9b2e5	-0.114110745
109	0x3c0a2474	0.008431543
110	0xbd9b18d7	-0.07573097
111	0x3d268281	0.040651802
112	0x3bf77c59	0.007552665
113	0x3e2555b2	0.16145971
114	0x3d0332ab	0.032030743
115	0x3d90cf91	0.0707084
116	0x3d9b9489	0.0759669
117	0xbd96b092	-0.07357897
118	0x3defb3e1	0.11704231
119	0x3dbfdfec	0.093688816
120	0x3d65fe32	0.056150623
121	0x3c81b235	0.015832046
122	0xbc59cc4e	-0.013293339
123	0xbe299d9c	-0.1656403
124	0x3e1363e5	0.14393575
125	0xbde6c4ec	-0.112680286
126	0xbb785a3b	-0.0037895578
127	0x3d674f7c	0.056472287
128	0x3e066663	0.13124995
129	0xbd854599	-0.06507415
130	0xbc5d883e	-0.013521252
131	0xbd80829c	-0.06274912
132	0xbd42d188	-0.047563106
133	0xbd9120d6	-0.07086341
134	0x3cdc169c	0.02686625
135	0xbd98fb4f	-0.07469808
136	0xbc291aa2	-0.010321291
137	0x3d80bada	0.06285639
138	0xbd2d9b50	-0.042384446
139	0x3d093545	0.033498067
140	0xbe417227	-0.18891202
141	0x3da505fe	0.080577835
142	0x3aeb5e52	0.0017957187
143	0x3dc3c43c	0.09558913
144	0x3d2d6659	0.042333934
145	0x3e04ec19	0.12980689
146	0x3df36e20	0.11886239
147	0x3dbf3d84	0.09337905
148	0xbc61065d	-0.013734427
149	0x3cf4df69	0.029891687
150	0xbdcc790a	-0.09984024
151	0xbd947592	-0.07248987
152	0x3d80e395	0.06293408
153	0xbdbaa5f4	-0.09113684
154	0xbd28e546	-0.041234277
155	0x3e05e62b	0.13076083
156	0xbd4d545c	-0.05012928
157	0x3e12bceb	0.14329879
158	0x3da0b9b7	0.07847922
159	0x3d676f8d	0.056502867
160	0xbc89e34f	-0.016832022
161	0x3db9ddfb	0.090755425
162	0xbdd81ee2	-0.105527654
163	0x3da30023	0.079590105
164	0xbe17c620	-0.14821672
165	0xbdb1e92c	-0.08687052
166	0xbdc160a7	-0.09442263
167	0xbda507d5	-0.080581345
168	0x3e20d815	0.15707429
169	0xbdfba738	-0.12287754
170	0xbc8fda43	-0.01756013
171	0xbd5d6f36	-0.054061137
172	0xbd11ebb6	-0.035625182
173	0xbd4decd5	-0.05027469
174	0xbdcd496d	-0.100237705
175	0x3de89257	0.11356037
176	0x3d6beecf	0.057600792
177	0x3d587171	0.05284256
178	0x3d9e7b26	0.077383325
179	0xbdc9ffc8	-0.098632395
180	0xbd070393	-0.032962393
181	0xbd802a4f	-0.0625807
182	0x3bde7ade	0.0067895493
183	0xbdcdc860	-0.10047984
184	0xbcaeb9ab	-0.021328768
185	0xbe09f6f7	-0.13473116
186	0xbc4806a0	-0.012208611
187	0x3de566c9	0.11201245
188	0x3d9865f4	0.07441321
189	0xbd68e2e2	-0.056856997
190	0xbdc3f12f	-0.095674865
191	0x3d68bb22	0.05681909
192	0x3e0f5aa8	0.13999426
193	0xbd9b3103	-0.075777076
194	0xbe278183	-0.16357999
195	0x3dbda6ed	0.09260354
196	0xbe0da836	-0.13833699
197	0xbe17ebf0	-0.14836097
198	0x3dbd1c61	0.092339285
199	0x3c2cadea	0.010539511
200	0x3dbe033c	0.09277961
201	0x3dbbdbeb	0.091728054
202	0x3deba324	0.11505726
203	0xbd8da70a	-0.06916626
204	0x3e0c447b	0.13697998
205	0xbdb8ec2c	-0.09029421
206	0x3dc395fc	0.095500916
207	0x3d389a29	0.045068894
208	0xbdb92f79	-0.09042258
209	0x3cf706f4	0.030154683
210	0x3de8a3b2	0.113593474
211	0xbdd8479d	-0.10560534
212	0x3d1968e0	0.037453532
213	0x3da42c53	0.08016267
214	0xbb80e03e	-0.0039329818
215	0x3dd9c5cb	0.10633429
216	0x3da9ddac	0.08294234
217	0xbdbd4e42	-0.09243442
218	0x3c60be82	0.013717296
219	0xbde25a6b	-0.11052402
220	0x3d8c2c14	0.06844345
221	0xbe020148	-0.12695801
222	0x3bd7e2c0	0.00658831
223	0x3dce727b	0.10080429
224	0x3d6347c6	0.05548837
225	0xbdbe9a9e	-0.09306835
226	0xbde9d0d7	-0.11416786
227	0x3dcdba38	0.10045284
228	0x3d9eee91	0.07760347
229	0xbe20190b	-0.15634553
230	0x3db00014	0.08593765
231	0x3d8ee616	0.06977479
232	0xbdd84ad3	-0.105611466
233	0xbdfc9913	-0.12333884
234	0x3e08a32d	0.13343497
235	0xbccb416b	-0.024811467
236	0x3d9c737b	0.07639214
237	0x3de6553a	0.112467244
238	0x3d7cf9fd	0.061761845
239	0x3c57a974	0.013162959
240	0xbcc39dba	-0.02387892
241	0xbd6eb559	-0.058278415
242	0x3cac8a60	0.021062076
243	0x3d506c2a	0.050884403
244	0xbe056616	-0.13027224
245	0xbd166d7b	-0.036725502
246	0xbd4a25cf	-0.049352463
247	0xbd129c8c	-0.035793826
248	0xbdf827fe	-0.12117003
249	0x3cd15f44	0.025558122
250	0x3d076f47	0.033065107
251	0x3bc83a0d	0.006110436
252	0xbda938a0	-0.082627535
253	0x3e057160	0.1303153
254	0xbe0fe308	-0.1405145
255	0xbd219130	-0.039445102

lstm2.weight_hh_l0 f4 [200, 50]
0	0xbd505386	-0.050860904
1	0x3de0c25b	0.1097457
2	0x3d6261b3	0.055268954
3	0xbce45eb7	-0.027877195
4	0x3d77191e	0.060326688
5	0xbc7f5510	-0.015584245
6	0x3bc5ee6c	0.006040385
7	0x3d88f182	0.06686689
8	0x3995f108	0.00028599077
9	0xbe04bbc4	-0.12962252
10	0xbe1d08c8	-0.15335381
11	0x3bd0df75	0.0063742944
12	0xbdabc490	-0.08387101
13	0x3d810f5f	0.0630176
14	0x3d61eaeb	0.055155676
15	0x3c3f477d	0.011674759
16	0x3cf566e7	0.029956294
17	0x3d717ab2	0.058954902
18	0x3dedf771	0.11619461
19	0x3dbf8deb	0.093532406
20	0xbdb9dda3	-0.09075477
21	0x3dd20a56	0.10255878
22	0xbd394b8f	-0.045238074
23	0x3d573b5b	0.05254684
24	0x3d97319c	0.07382509
25	0xbd5c17a9	-0.0537335
26	0x3d72e0e4	0.059296504
27	0xbe1569e4	-0.14591175
28	0x3d15624c	0.036470696
29	0xbd5ba87a	-0.05362747
30	0x3e089cf2	0.1334112
31	0xbd9cfcc5	-0.076653995
32	0x3d03558b	0.032064002
33	0xbe04c991	-0.12967516
34	0x3caabec3	0.020842915
35	0xbdfa6615	-0.12226502
36	0xbd39c115	-0.045350153
37	0xbdba5733	-0.09098663
38	0xbe053b88	-0.1301099
39	0x3d7f2b47	0.062297132
40	0xba20a6b7	-0.0006128358
41	0x3d29a784	0.04141952
42	0x3da3f5a6	0.08005838
43	0xbd02a9c8	-0.031900197
44	0xbdc53165	-0.09628562
45	0xbddce6e1	-0.10786224
46	0x3c95ed8c	0.018301748
47	0x3dee1d8a	0.11626728
48	0xbbb94f67	-0.0056552175
49	0x3da18598	0.07886809
50	0x3e167380	0.14692497
51	0x3cab01ef	0.020874945
52	0xbd6147f4	-0.05500026
53	0x3d825239	0.06363339
54	0xbc671b0b	-0.014105569
55	0x3dd55194	0.104159504
56	0xbdd4594f	-0.10368597
57	0xbd2f101e	-0.04273998
58	0x3e00ccdf	0.12578152
59	0x3d21f0a7	0.039536145
60	0xbe0153af	-0.12629579
61	0xbc571c56	-0.013129314
62	0x3e1194bf	0.14216898
63	0xbd615081	-0.055008415
64	0x3cade856	0.02122895
65	0xbbf16f8c	-0.0073680338
66	0x3bb2cd80	0.0054566264
67	0xbd1edf6e	-0.038787298
68	0x3d4869ce	0.04892903
69	0x3d8ea01f	0.069641344
70	0xbdc68ee5	-0.09695224
71	0xbe27013d	-0.16309066
72	0xbe172f5d	-0.14764161
73	0x3d72e214	0.059297636
74	0x3d991cf0	0.074762225
75	0xbd942988	-0.07234484
76	0xbdd31e43	-0.10308506
77	0xbe46c297	-0.19410168
78	0x3df4773d	0.119368054
79	0x3de1668f	0.110058896
80	0xbd5b6b62	-0.053569205
81	0x3dab6c82	0.083703056
82	0xbd9ce0c0	-0.07660055
83	0xbde5bc5a	-0.11217566
84	0x3dce5649	0.10075051
85	0x3d2c0405	0.04199602
86	0x3bec7fd7	0.007217388
87	0xbafd8538	-0.001934207
88	0xbdc23166	-0.09482078
89	0xbe40fa3b	-0.18845455
90	0xbe0a1e06	-0.13488016
91	0xbd9bfdb1	-0.07616747
92	0xbcf81b8e	-0.030286577
93	0xbd49b7ec	-0.049247667
94	0xbde9e3e8	-0.11420423
95	0x3dd9d5f0	0.106365085
96	0xbdbab813	-0.091171406
97	0x3dc7d06c	0.0975655
98	0xbdbd3beb	-0.09239944
99	0xbdb64792	-0.0890037
100	0x3cbec6e7	0.023288203
101	0x3c7002ea	0.014649132
102	0xbd646b57	-0.05576643
103	0xbde92b51	-0.11385215
104	0xbdc367fd	-0.095413186
105	0xbc917209	-0.017754572
106	0xbd48e972	-0.049050756
107	0xbd01c7e8	-0.031684786
108	0x3d13d7f3	0.036094617
109	0x3dfb9e75	0.12286083
110	0xbddc6363	-0.10761144
111	0xbd9d4de8	-0.07680875
112	0x3d9e99b7	0.077441625
113	0xbd99adb7	-0.075038366
114	0x3dfacf73	0.12246599
115	0x3dad5ac3	0.08464577
116	0xbd92d34f	-0.0716921
117	0x3e10c71d	0.14138456
118	0xbd11947b	-0.035541993
119	0x3d94d248	0.072666705
120	0xbdefa1cb	-0.117007814
121	0xbda79aa5	-0.08183793
122	0xbe06b307	-0.13154231
123	0xbcf1c043	-0.029510623
124	0xbd736b34	-0.05942841
125	0x3dd06647	0.10175758
126	0x3c439b2c	0.011938851
127	0xbe178b56	-0.14799246
128	0xbdd5fa0a	-0.10448082
129	0xba9bd82d	-0.0011889987
130	0x3d82c6db	0.06385585
131	0xbdc12bea	-0.09432204
132	0xbd2f5588	-0.04280618
133	0x3db8f589	0.09031207
134	0x3db819a4	0.089892656
135	0x3e146d91	0.14494921
136	0x3e00438e	0.1252577
137	0x3dc19a19	0.0945322
138	0x3da42fdb	0.0801694
139	0x3d69fca1	0.05712569
140	0xbd4d7523	-0.05016054
141	0x3d064d8e	0.032788806
142	0x3b659542	0.0035031592
143	0x3d79fecf	0.06103402
144	0xbde76e7d	-0.11300371
145	0xbd42fe52	-0.04760582
146	0x3d686200	0.056734085
147	0x3daba9e7	0.08382016
148	0x3e0f277d	0.13979907
149	0x3ca681f5	0.02032564
150	0x3de14ef0	0.11001384
151	0xbd9d4bf8	-0.076805055
152	0x3e204115	0.15649827
153	0xbe0ad5be	-0.13558099
154	0x3dbf58f9	0.09343142
155	0xbdf74b56	-0.12074916
156	0x3cec6834	0.028858282
157	0xbe0b792a	-0.13620439
158	0xbd8b0914	-0.06788841
159	0x3dbdf8cb	0.09275969
160	0xbcf666b6	-0.030078273
161	0x3c23d3b6	0.009999206
162	0xbda71773	-0.081587695
163	0xbd1d2662	-0.038366683
164	0x3cf66490	0.030077249
165	0x3d928919	0.071550556
166	0xbe1aa3b5	-0.15101512
167	0x3e887800	0.26654053
168	0x3d3a2aa3	0.045450818
169	0x3e14b1cd	0.1452095
170	0xbd15fbd5	-0.03661712
171	0x3dae8d38	0.08523029
172	0x3da75f3f	0.081724636
173	0x3dcdf009	0.10055549
174	0x3d4a8b5d	0.049449313
175	0xbd5f851a	-0.054570295
176	0xbd051146	-0.032487176
177	0xbd3293b7	-0.043597903
178	0x3de0d26e	0.10977636
179	0x3e225179	0.15851392
180	0xbdcc70c0	-0.09982443
181	0xbd861e60	-0.06548762
182	0xbd412061	-0.04715002
183	0x3dacc9ad	0.08436904
184	0xbd3d5373	-0.04622216
185	0xbcdd5aa7	-0.027020765
186	0xbcd55d48	-0.026045457
187	0x3bcc138b	0.0062279156
188	0xbc270c61	-0.010195822
189	0x3d931882	0.07182409
190	0xbdb5e9b1	-0.08882464
191	0x3cb7520e	0.022377994
192	0xbdce9a2f	-0.10088002
193	0xbdcd4807	-0.10023504
194	0xbdd311bd	-0.10306118
195	0x3dbad430	0.09122503
196	0xbdfbff57	-0.123045616
197	0x3dce64b8	0.10077804
198	0x3e3f752d	0.18697043
199	0x3e07c033	0.13256912
200	0xbd1ef317	-0.038806047
201	0x3c415750	0.011800602
202	0xbd684361	-0.056704883
203	0x3d306217	0.043062296
204	0xbdd851df	-0.10562491
205	0xbdebddb6	-0.115168974
206	0xbd4a8274	-0.049440816
207	0xbe0a8b4f	-0.13529705
208	0xbdfa2762	-0.12214543
209	0xbd1722e4	-0.03689851
210	0xbcd347cc	-0.025791071
211	0xbdb3208b	-0.087464415
212	0x3e2afdb8	0.16698349
213	0xbdcbcd65	-0.09951285
214	0x3d4b14cb	0.049580377
215	0xbe0aa064	-0.13537747
216	0x3e115ba9	0.14195122
217	0x3ca45cd5	0.020063797
218	0x3e04f2e9	0.12983288
219	0x3e1d7fa0	0.15380716
220	0x3da77726	0.08177023
221	0x3e10b120	0.14130068
222	0x3c73d54c	0.014882397
223	0x3ddd5374	0.10806933
224	0x3dd0c767	0.10194283
225	0x3d084416	0.033268057
226	0x3dce6a57	0.100788765
227	0x3ce278d5	0.027645508
228	0xbd05f7da	-0.032707073
229	0xbd612b7e	-0.054973118
230	0x3e19371f	0.14962433
231	0xbc8a51d2	-0.016884718
232	0x3c29dce6	0.010367608
233	0x3cf6ca0f	0.030125646
234	0x3dc60faa	0.096709564
235	0xbdf7c93c	-0.12098929
236	0xbdc024c4	-0.093820125
237	0xbe0528e8	-0.13003886
238	0x3d36c131	0.044617835
239	0xbc9d9051	-0.019233854
240	0x3dada0d1	0.08477939
241	0xbda278b1	-0.07933176
242	0xbd9ffa03	-0.07811358
243	0xbdda0661	-0.10645748
244	0xbce47dd1	-0.027892025
245	0xbb998ff0	-0.004686348
246	0xbdde20ec	-0.10846123
247	0x3dff905a	0.12478705
248	0x3da6e499	0.0814907
249	0xbd73816d	-0.059449602
250	0xbdcc1dc5	-0.099666156
251	0x3df8a474	0.12140742
252	0x3db39341	0.08768321
253	0x3da8ddfc	0.08245465
254	0xbd84c1a9	-0.0648225
255	0xbd998e73	-0.07497873

lstm2.bias_ih_l0 f4 [200]
0	0x3d36c3e9	0.04462043
1	0xbd4bb6c0	-0.04973483
2	0xbdae016a	-0.084963635
3	0xbe0498b7	-0.12948881
4	0xbbe591a9	-0.0070058894
5	0xbc004613	-0.007829207
6	0xbd11c9d8	-0.035592884
7	0xbd51b50b	-0.051198047
8	0x3df96a3c	0.12178466
9	0x3c32d387	0.01091469
10	0x3d150a42	0.036386736
11	0x3be3d306	0.006952646
12	0x3d9c7b10	0.0764066
13	0xbc2335d8	-0.009961568
14	0x3d47199b	0.048608404
15	0x3cd7d6b0	0.026347488
16	0x3d76f2c0	0.0602901
17	0xbd6cc9eb	-0.05780975
18	0x3e0197fd	0.12655635
19	0xbca5a068	-0.02021809
20	0xbd467b54	-0.04845746
21	0xbce6ae26	-0.028159212
22	0xbcf8f43a	-0.030389894
23	0xbda156d8	-0.07877892
24	0xbcc3bbc6	-0.023893248
25	0x3dcbae70	0.09945381
26	0x3dad7790	0.0847007
27	0x3e2b7aec	0.1674611
28	0x3dad133d	0.08450935
29	0xbd97a02b	-0.074035965
30	0x3d556b4f	0.05210429
31	0x3dcae9b9	0.0990786
32	0x3d940d46	0.07229094
33	0xbdc6c1a2	-0.09704901
34	0x3e322d9d	0.17400213
35	0x3de5c842	0.11219837
36	0xbd6429f1	-0.05570406
37	0xbc55be15	-0.013045807
38	0xbd3f30fd	-0.04667758
39	0xbded9e74	-0.11602488
40	0x3da03346	0.0782228
41	0x3cadb740	0.021205544
42	0x3e0e8625	0.1391836
43	0xbda3042b	-0.07959779
44	0x3c831b88	0.016004339
45	0x3d93df79	0.072203584
46	0x3d824b1e	0.06361984
47	0x3e0e792d	0.13913412
48	0x3dc68699	0.09693641
49	0xbe0159a4	-0.12631851
50	0x3c89b784	0.01681114
51	0xbd8689a9	-0.06569225
52	0x3ddd26eb	0.10798439
53	0x3c9a796d	0.018856728
54	0xbdb42c74	-0.08797541
55	0xbdee0797	-0.116225414
56	0xbe0c8188	-0.13721287
57	0xbd333995	-0.043756086
58	0x3d54c15d	0.051942218
59	0x3d0073ae	0.03136032
60	0xbe412702	-0.18862537
61	0xbdc224a6	-0.094796464
62	0xbdf57f6e	-0.11987196
63	0x3d11d146	0.03559997
64	0xbd4cc7f8	-0.049995393
65	0xbdd7b614	-0.105327755
66	0xbe0bad06	-0.13640222
67	0xbd3b96b2	-0.04579801
68	0xbc1a59b9	-0.009420806
69	0xbd0daaae	-0.0345866
70	0x3c40bffa	0.011764521
71	0xbe18deca	-0.14928737
72	0xbe04e8cb	-0.12979428
73	0xbd25d8c4	-0.040489927
74	0xbe1a25f9	-0.15053548
75	0x3dedb097	0.116059475
76	0x3d0bd278	0.034136266
77	0x3e2e18a6	0.1700159
78	0xbe1604e1	-0.14650299
79	0x3d68c6db	0.05683027
80	0xbd85d638	-0.065349996
81	0xbdcaec9e	-0.099084124
82	0x3d636b8d	0.05552249
83	0xbd320b46	-0.043467782
84	0x3d33de0e	0.04391294
85	0x3d9b7ed0	0.07592547
86	0xbc3e5092	-0.011615889
87	0x3d527b31	0.051387016
88	0xbdd8b919	-0.105821796
89	0x3cc1ab5b	0.023641279
90	0xbdee0216	-0.116214916
91	0xbd8b2822	-0.06794764
92	0xbd2ca905	-0.042153377
93	0x3c998a99	0.018742846
94	0xbd904d4d	-0.07045994
95	0x3e04fefb	0.12987892
96	0x3d2e49b2	0.04255075
97	0xbcb6e364	-0.022325225
98	0x3cda290d	0.026630903
99	0xbc35ff91	-0.011108295
100	0x3ca2ddbc	0.019881122
101	0xbd09c00c	-0.033630416
102	0xbc8fb104	-0.017540462
103	0x3d3ceb54	0.046122864
104	0x3d9756ab	0.073895775
105	0x3d82c616	0.06385438
106	0x3d9d0af2	0.07668103
107	0x3d04dc35	0.03243657
108	0xbd317786	-0.043326877
109	0x3b1318a8	0.0022445116
110	0xbd941b20	-0.07231736
111	0xbbb55aad	-0.005534491
112	0xbd8e8e95	-0.06960789
113	0x3dabe2c5	0.08392862
114	0xbd29b620	-0.041433454
115	0xbc222b00	-0.009897947
116	0x3ccd3029	0.025047379
117	0xbd136a6f	-0.035990175
118	0x3d926eff	0.07150077
119	0xbdc41789	-0.095748015
120	0xbdb4f9cc	-0.088367075
121	0x3cccbe34	0.02499304
122	0xbd1468da	-0.036232807
123	0xbdc3131e	-0.09525131
124	0xbd15a406	-0.036533378
125	0xbd5c21f4	-0.053743318
126	0xbd3dbacf	-0.046320733
127	0xbcb16b91	-0.021657737
128	0x3cc24df2	0.023718808
129	0x3ceb5001	0.028724672
130	0x3dd53804	0.10411075
131	0xbd3973ac	-0.04527633
132	0x3dd44070	0.10363853
133	0x3d190e41	0.03736711
134	0x3d3a4874	0.045479253
135	0xbe030d8b	-0.12798135
136	0x3d1e73f3	0.038684797
137	0x3dc6236b	0.09674724
138	0xbc99cdd2	-0.0187749
139	0xbd0c091b	-0.03418837
140	0x3da70822	0.08155848
141	0xbdb17afa	-0.08666034
142	0xbd16f66d	-0.036856104
143	0x3dbecf30	0.09316862
144	0xbced8a8a	-0.028996725
145	0xbca8d412	-0.020608936
146	0x3d2f774e	0.042838387
147	0xbdc599f3	-0.09648504
148	0x3db6115d	0.088900305
149	0xbcac9a6c	-0.021069728
150	0x3e1cfbcb	0.15330426
151	0xbdc71c12	-0.09722151
152	0xbb3db77f	-0.0028948484
153	0xbe05ad66	-0.13054428
154	0xbcf7550e	-0.030191924
155	0x3d85a116	0.06524865
156	0xbd9047e8	-0.07044965
157	0x3de27ff1	0.11059559
158	0x3e06671a	0.13125268
159	0xbd35626c	-0.044283316
160	0x3d653d39	0.05596659
161	0x3de27fba	0.11059518
162	0x3e1c23b1	0.1524799
163	0xbda4cfb9	-0.080474325
164	0x3e0d1c21	0.13780262
165	0xbd2992da	-0.041399814
166	0xbe029f7c	-0.12756151
167	0xbd008abe	-0.031382315
168	0x3b99819e	0.004684641
169	0xbde50123	-0.111818574
170	0x3e290034	0.16503984
171	0xbcea9e03	-0.028639799
172	0x3dfc2820	0.12312341
173	0x3deadb09	0.11467559
174	0xbc508080	-0.012725949
175	0x3d2e7c03	0.042598736
176	0x3c3c7664	0.011502836
177	0x3d443407	0.04790118
178	0x3d225235	0.03962918
179	0xbde538b7	-0.11192458
180	0x3e22e8d4	0.1590913
181	0xbd1cae8c	-0.0382524
182	0x3d5aa8b2	0.053383537
183	0xbe058290	-0.13038087
184	0x3dcd9cd9	0.10039682
185	0x3dcb986e	0.09941183
186	0x3e1cf17e	0.15326497
187	0xbd0819d9	-0.033227775
188	0x3db36795	0.08759991
189	0xbdde76b3	-0.10862484
190	0xbd6a42dc	-0.05719267
191	0xbdef6873	-0.11689844
192	0xbdbfa2c7	-0.09357219
193	0x3d08d102	0.03340245
194	0xbd2fa2b4	-0.042879775
195	0x3dcc6c19	0.099815555
196	0x3d05085b	0.03247867
197	0x3daa7eaf	0.08324944
198	0xbdc5d7f7	-0.09660333
199	0xbdbf529c	-0.09341928
